outputs/models/lstm_finetuned_model.pth (torch, 281059 bytes, 6 tensors)

lstm.weight_ih_l0 f4 [512, 6]
000000 1f 0e 35 3b 0b 89 e1 bc 00 55 80 3d d1 fa 81 3d
       0.0027626825 -0.027531167 0.062662125 0.063466676
000010 b4 fa c4 3d 01 88 48 3e 8e d6 db 3c e3 b9 11 3d
       0.0961813 0.19583131 0.026835706 0.035577666
000020 a0 10 a9 3c 93 0c 47 3d ab 60 a5 3d d7 9e d1 3e
       0.02063781 0.048595976 0.080750786 0.40941498
000030 64 78 ea 3b ef b8 de 3d 7f 62 91 3d a8 71 88 3b
       0.007155465 0.10875117 0.07098865 0.0041639395
000040 37 3b 0d 3e f5 13 84 3d 5a 0e 67 3d 08 5a e1 3c
       0.1379212 0.06449119 0.05641017 0.02750875
000050 68 c4 c4 3c 56 50 6c 3d 0d e0 ae 3d 80 5d 6e bd
       0.024019435 0.0576938 0.08538828 -0.058194637
000060 95 71 fd 3a 61 80 d9 3d 70 1c 35 3d 51 b0 c5 3c
       0.0019336218 0.106201895 0.044216573 0.024131926
000070 95 a2 c6 3d 9e 25 6a bd b5 51 03 3e c1 be c5 3d
       0.09698979 -0.05716478 0.12824138 0.09655524
000080 fc 6c 56 3d c7 82 3c 3c d4 64 24 bd 15 ce 67 be
       0.05235003 0.011505789 -0.04013522 -0.22637208
000090 fb cb 8b bd c0 87 df 3c 36 75 92 3e 66 51 99 be
       -0.068260156 0.02728641 0.2860505 -0.29944915
0000a0 b5 1c 45 bf e8 aa 79 3f ad f6 be 3d a7 07 f1 3d
       -0.7699693 0.9752641 0.093243934 0.11769038
0000b0 21 bb ea 3c 2e e3 40 bc b9 0d 84 3d f5 83 8f bd
       0.028653683 -0.011772914 0.0644793 -0.07007591
0000c0 17 5c e5 bd 14 07 23 bd 56 f8 75 bd cf 06 0a bd
       -0.11199205 -0.039801672 -0.060051285 -0.0336979
0000d0 d8 8c c3 bd 80 67 08 3d f3 a3 49 3d 61 d9 65 3d
       -0.09548348 0.03330183 0.04922862 0.05611551
0000e0 85 2d c7 bc 0f 4d 89 3d c4 e3 8e bc 4b b2 00 bd
       -0.024313698 0.06704151 -0.017442591 -0.031420033
0000f0 eb 00 b2 bc de 58 c2 3d a0 3b 5b bd c9 c4 fe bd
       -0.021728953 0.09489606 -0.05352366 -0.124398775
000100 e1 4b 35 bd f6 fb 05 be 49 7d ab bd 7a 11 71 3d
       -0.044261817 -0.13084397 -0.083735056 0.058854558
000110 18 33 0f 3d 50 84 9b bc 23 d5 19 3c 0a dd 5e 3d
       0.034960836 -0.01898399 0.009389195 0.054410018
000120 9c 87 ae 3c db af b9 3c 9f 35 82 bc 30 91 06 3e
       0.021304898 0.022666862 -0.01589471 0.13141322
000130 57 44 f2 3d 15 98 24 bd b5 80 0c 3d 72 f0 3e bd
       0.11829441 -0.0401841 0.034302432 -0.046616025
000140 f7 7a 07 3d 9d 8f 23 bc ba f3 9e bd c0 5e 48 bd
       0.033076253 -0.009982971 -0.07761331 -0.048918486
000150 cc 87 b6 3c 76 de 99 3d 9d 4d d9 bc a8 c4 d2 3d
       0.02228155 0.07513134 -0.026526267 0.102914155
000160 6f 89 0e 3d 87 39 96 bc 6d 0e b0 3d 44 22 8b bb
       0.034799036 -0.018337978 0.085965015 -0.004246028
000170 92 40 00 3d fc e0 44 3d c1 34 5e 3d b2 61 9c 3d
       0.03131158 0.048066124 0.05424953 0.076358214
000180 5a 64 7a bd 37 f7 83 3d 66 f8 12 3d 4a 7a 07 3e
       -0.06113086 0.06443637 0.035881422 0.13230243
000190 94 a4 d6 3d 10 3c 2d 3e 0f 0e be 3d bd 88 93 3c
       0.104806095 0.16917443 0.09280025 0.018009538
0001a0 d2 d8 d8 3d 5c 77 de 3c 02 6c e6 3d e4 1f f9 3b
       0.1058823 0.027156524 0.112510696 0.0076026786
0001b0 46 b2 7e 3d 9a ba e1 bc f8 7b b8 3c be bb 2c 3d
       0.062181734 -0.027554799 0.02252005 0.042171232
0001c0 fe d5 2e 3d 73 b5 8a 3d 26 c0 a1 3d 51 05 98 3d
       0.042684548 0.0677289 0.078979775 0.07422889
0001d0 3b e5 02 bd 6e 83 b2 3d d0 d6 c2 3d a0 4e 87 bd
       -0.031956892 0.087164745 0.095136285 -0.066067934
0001e0 cb 4f a7 bd d3 f7 c3 3d e7 e6 55 bd fc b0 bf bd
       -0.08169516 0.09568753 -0.05222216 -0.09359929
0001f0 17 b4 85 bd 01 c4 55 3d 69 cf 9f 3d e7 ec 94 3d
       -0.0652849 0.052188877 0.07803232 0.07271748
000200 95 63 84 3d da 09 49 3d 6e f0 ed bc 00 af 87 3b
       0.06464306 0.04908166 -0.02904531 0.0041407347
000210 bd 3c ba be 32 a4 35 3e ad 27 83 3e 73 0b 06 be
       -0.36374465 0.17738417 0.25616208 -0.13090305
000220 a0 94 43 bf 74 e3 de 3e 7b 14 a9 3c e4 40 8a 3d
       -0.7639866 0.43532908 0.020639649 0.06750658
000230 45 fb 74 3d 00 87 dd 3c f8 6f 6b bd 27 d6 8e bd
       0.05980994 0.027041912 -0.05747983 -0.0697444
000240 6e 6e 9d bd db d5 9b ba 85 f7 1c 3c 44 54 34 bd
       -0.076870784 -0.0011889295 0.009580498 -0.044025674
000250 71 88 b5 bd eb ca 9f 3c bf 3c 30 b9 87 85 1a be
       -0.08863915 0.019505939 -0.00016807298 -0.15089999
000260 29 45 7c bd 67 ee ff bc 91 27 8d bd 86 10 56 bd
       -0.061589394 -0.031241609 -0.06892312 -0.05226185
000270 19 c3 8e 3d 68 f1 11 bc e1 4f a0 3d 69 0c 9f 3d
       0.06970806 -0.008907653 0.07827736 0.07766039
000280 a8 23 66 3c 3e 89 07 3d f5 96 d1 bc 1e 78 81 3c
       0.014046587 0.03308987 -0.025584677 0.015804347
000290 ea 26 85 3c 0c 23 f8 3d 16 be 3e bc 85 7c d5 3b
       0.016253907 0.1211606 -0.011642 0.006515088
0002a0 a9 13 be bd 69 cb ed 3d 4c 29 03 3e f3 88 fb 3b
       -0.092810936 0.11611063 0.12808722 0.0076762377
0002b0 9c b4 bf bd c4 f9 9c 3e 63 43 45 3d e5 f1 c2 bc
       -0.093606204 0.30659306 0.048159968 -0.023796985
0002c0 73 f8 ae bd bb bf d9 3c 3b ee 2a 3d d3 75 75 bd
       -0.08543482 0.026580682 0.0417311 -0.05992682
0002d0 9e 46 de 3c d9 c9 92 bc 41 c3 30 bd 39 80 92 3d
       0.027133282 -0.017918514 -0.04315496 0.07153363
0002e0 b0 d3 8a bc e2 02 38 3d 79 b0 89 bd bc 4d ca bd
       -0.016946644 0.044924624 -0.067231126 -0.09878108
0002f0 5f cd 35 3d 4e e8 93 bd c1 b5 0d 3d 89 ce 92 3d
       0.04438531 -0.07222043 0.034597162 0.071683
000300 fa ed 47 3d eb 08 ab 3e 89 07 17 be 03 65 50 be
       0.048810937 0.3340524 -0.14748968 -0.20351033
000310 5e 36 f8 bd 9d a6 ad be 65 b3 3d bd 81 be fd 3d
       -0.12119745 -0.33916178 -0.046313662 0.12389851
000320 d4 23 e3 3d 01 76 ba bc eb 41 c3 3d f6 da d8 3c
       0.11090818 -0.022761347 0.09534057 0.026471596
000330 91 ce d6 3d d5 eb 8e 3e 8a 65 ed bd d7 6f 66 3d
       0.10488618 0.279143 -0.11591633 0.056259003
000340 dc 13 27 3e 3c 2f df be c2 86 a7 bb 3e e1 59 bb
       0.1631617 -0.43590724 -0.0051125 -0.0033245827
000350 72 88 c0 3b 3c b3 c5 3d c4 3e 3f 3c 38 99 30 3d
       0.0058756405 0.09653327 0.011672679 0.04311487
000360 94 4e c2 bb 68 e9 8b 3d b4 77 c8 3c 41 c6 95 3d
       -0.0059297774 0.06831628 0.024471141 0.073132046
000370 cf f8 81 bb 4e 5c 7e bd 19 21 e4 3b 67 c6 75 3c
       -0.003966428 -0.062099747 0.0069619534 0.015000916
000380 50 f1 5e bd 51 75 87 bd f4 74 3a 3d fb 23 49 bd
       -0.054429352 -0.06614173 0.04552169 -0.04910658
000390 83 61 88 3d bf df 8a 3d fa 3d f8 bc dd af dd 3d
       0.06659224 0.067809574 -0.03030299 0.10824559
0003a0 23 0d 42 bb ba 5d db 3c 36 50 25 3d 24 c8 a8 bd
       -0.002960988 0.02677809 0.0403597 -0.08241299
0003b0 bf d3 42 3c d8 71 7d bd 21 b9 80 3c e2 8e 71 3d
       0.0118913045 -0.061876148 0.015713276 0.058974154
0003c0 60 45 c6 3d d0 e5 6f bc 1b 15 a4 3d b2 4f 64 3d
       0.09681201 -0.014642194 0.08011838 0.055740066
0003d0 83 ee b4 3d 58 18 21 bc 1d aa 1f bd d9 65 f6 bd
       0.08834555 -0.009832464 -0.038980592 -0.12031145
0003e0 ba c6 fa 3d 7c e6 0e be 72 b8 e1 bd 52 ab 05 3f
       0.12244935 -0.1395511 -0.11021508 0.5221454
0003f0 73 a4 1f be 3e 64 0e bc 2a b1 b4 bd 5e c9 59 bc
       -0.15590076 -0.008690892 -0.08822854 -0.013292639

lstm.weight_hh_l0 f4 [512, 128]
000000 73 0d 40 be 2d f7 54 3d 87 54 37 bd 44 00 17 3d
       -0.1875513 0.051993538 -0.044758346 0.036865488
000010 c1 8c 42 3d 3d 27 6c bd 61 12 08 be 61 ae e1 bc
       0.047497515 -0.057654608 -0.13288261 -0.02754897
000020 e5 1a d0 3c 96 7c 39 3d 9a 99 dd bd 6e 90 9d bb
       0.02540345 0.04528483 -0.10820313 -0.004808477
000030 a0 b5 47 bd 0a 57 18 3d eb 5a da 3d c3 1f 36 3e
       -0.048757195 0.037192382 0.106618725 0.17785554
000040 62 32 16 3e 9d 14 9d bd b3 5e a6 bb 25 14 94 be
       0.14667657 -0.07669947 -0.005077207 -0.2892162
000050 f6 73 13 be ce 66 e5 3d 6b 8c 1f be 96 6e 16 bd
       -0.14399704 0.11201249 -0.15580909 -0.036726557
000060 b3 7c 81 3d ba d9 ba 3d 56 0f 12 bd 34 73 24 bc
       0.063226126 0.09123559 -0.035659157 -0.010037232
000070 af b0 09 3d 43 47 ac 3d b4 b1 8a 3d 65 5f 74 bd
       0.033615764 0.084120296 0.067721754 -0.059661288
000080 f3 fd 54 3d 6a 65 29 be 12 12 24 be f7 3b 00 3e
       0.051999997 -0.16542593 -0.16022518 0.12522875
000090 6e ca a7 3b ca 89 4a bc 2b 13 95 bd b7 f0 73 3d
       0.005120567 -0.012361953 -0.072790466 0.059555735
0000a0 3e 71 68 be f4 0f 5e 3d 37 1d a7 3d 6b 4b b8 3d
       -0.22699448 0.054214433 0.08159869 0.0899876
0000b0 5f a4 42 3d 29 21 8d 3e cb 05 bb 3d 62 c8 72 bd
       0.047520038 0.27564362 0.09131964 -0.05927313
0000c0 b1 e2 87 3d 29 04 8c ba 31 9e 76 3d f4 63 d0 bd
       0.06635035 -0.0010682392 0.060209457 -0.101753145
0000d0 fc 51 c8 bd ef e5 d0 3d 02 d2 5b 3d 40 af 54 3d
       -0.09781262 0.10200106 0.053667076 0.051924944
0000e0 85 cd 03 be e2 69 33 bd c8 0c 4c bd b0 c5 14 be
       -0.12871368 -0.04380215 -0.049816877 -0.14528537
0000f0 b3 3d 62 be 2f ac d4 bd 08 28 bb 3c 59 4d 84 bd
       -0.22093849 -0.10384404 0.022846237 -0.064600654
000100 a0 60 69 3d 96 4b 81 3e 45 ea 00 3e 46 b9 0e 3d
       0.056976914 0.2525298 0.12589367 0.03484466
000110 1a 7f bf 3d c0 e5 4f 3b b9 07 90 bc cf 14 e7 bc
       0.093504146 0.0031722635 -0.017581807 -0.028208164
000120 67 ca b8 b8 cb 40 c5 3c d8 3b 0f bd d4 b4 0e be
       -8.811504e-05 0.024078747 -0.03496918 -0.13936168
000130 8c e7 c9 bd ad e1 f3 3a 17 a3 e3 3c 98 35 99 bb
       -0.09858617 0.0018606685 0.027787728 -0.0046755783
000140 b4 07 a5 3c 45 51 9b bd 38 6d 3e 3d 89 70 07 bd
       0.020145275 -0.0758386 0.046490878 -0.033066306
000150 d2 3f 13 3d f8 d5 ac 3d 1a 02 91 3e 7d 48 58 be
       0.035949536 0.08439249 0.28321916 -0.21121402
000160 35 9d 2b 3a 9c 3d 46 be 17 02 4d bd d9 4d 39 bc
       0.0006546558 -0.1935944 -0.05005082 -0.011310064
000170 90 2d e2 3c 1d 6f cf 3c 21 ac 8d be 3f 7b 6c bd
       0.027609617 0.025321538 -0.27670386 -0.057734724
000180 8f 6f 1d be 2c c3 aa 3c 03 49 b3 3e f1 00 a9 bd
       -0.15374587 0.020845018 0.3501664 -0.08252133
000190 ac fd 9d be cb 2a 74 3e 05 53 a5 3d 72 21 49 3d
       -0.308576 0.23844449 0.08072475 0.04910416
0001a0 d4 0f a6 3c e4 60 8a bd 48 e9 1b 3d d5 51 80 3c
       0.02027122 -0.06756762 0.03806427 0.01566402
0001b0 01 59 b9 bd e8 78 0e 3c ee 56 13 3d 64 03 e8 3c
       -0.09050179 0.0086958185 0.035971574 0.02832193
0001c0 63 8d 6f be 90 6c ba 3c b9 8a 40 bd c4 81 27 bc
       -0.23393779 0.022756845 -0.047007296 -0.01022381
0001d0 95 d0 8f 3d 3e d6 14 bc 57 8b a5 bb 94 58 77 bb
       0.07022206 -0.009084282 -0.005052011 -0.0037742006
0001e0 be d4 88 bc 3a 95 0b bf 70 62 e4 3c b1 b0 c1 bd
       -0.016703006 -0.54524577 0.02787897 -0.09457529
0001f0 67 f2 6c bc 4f 82 36 bf b6 7d f4 bd 1b 6b 0a 3d
       -0.01446209 -0.71292585 -0.1193804 0.03379355
000200 21 b6 5a bd 4d 13 16 3d 0e 73 bf bd be 80 89 3d
       -0.053396348 0.0366395 -0.09348117 0.06714009
000210 2e c5 7b bc 71 37 9d 3c 30 98 b4 bd 6f 8c b4 3d
       -0.0153668355 0.019191476 -0.0881809 0.08815848
000220 e5 3e aa bc 68 d6 24 3d dd 6e 83 3d 9c f9 20 bd
       -0.020781944 0.040243536 0.0641763 -0.039300546
000230 be 95 04 be 48 80 4e bd d7 2b 10 bd 67 c5 8d 3d
       -0.12947747 -0.050415307 -0.03519806 0.06922417
000240 82 27 21 3e a0 77 97 bd f4 8c 1c 3d ed c5 c0 3b
       0.15737727 -0.073958635 0.03822036 0.0058829696
000250 00 84 0e be 2b f8 0c bc 8d 92 6e bd ce dc 69 3b
       -0.13917542 -0.00860409 -0.05824523 0.0035684588
000260 08 ab 65 3c fd 37 af 3d 2e b8 88 bd 84 8e b6 bd
       0.014017828 0.08555601 -0.066757545 -0.089139014
000270 df e9 09 3d ab f2 90 3d 32 77 a1 bd de b7 58 bd
       0.033670302 0.07077535 -0.07884063 -0.052909724
000280 b0 f0 27 3e 7c 27 d3 bc 48 1d 63 bd ab 2e 68 3b
       0.16400409 -0.025775664 -0.055447847 0.0035428207
000290 9f 04 04 be ea 14 3a bd bf 36 d7 bc 08 c6 73 bd
       -0.12892388 -0.0454301 -0.026271222 -0.05951503
0002a0 12 44 e3 3d 41 d2 af 3d 4c 2c 83 3c 47 3d 3d bd
       0.11096968 0.085850246 0.016012333 -0.046201017
0002b0 06 74 ae bd 0a 9a 97 bd 81 e3 c1 3d db ed dd bd
       -0.085182235 -0.074024275 0.09467221 -0.10836383
0002c0 29 e4 a8 3c f3 fa 63 3b 15 74 de 3c 11 22 a7 3d
       0.020616608 0.0034787029 0.027154962 0.081607945
0002d0 b0 18 28 bc 86 0f 3d 3d cb 68 16 be f1 d7 98 bd
       -0.010259792 0.046157382 -0.14688413 -0.074630626
0002e0 35 3f df 3d 72 55 56 3c c6 6b a8 bd 03 7f a4 bd
       0.10900728 0.013081895 -0.08223681 -0.08032038
0002f0 2b 3f c6 bd fe c0 06 3e 8d 3a a9 3d 4b 52 91 bd
       -0.09680017 0.13159558 0.08263121 -0.07095774
000300 5d 06 a6 3d 3a 11 fb 3d 10 c0 fd bd 70 a0 5d 3d
       0.081066824 0.12259145 -0.12390149 0.054108083
000310 d0 ec ed 3d 98 64 c1 bc 94 d2 95 bd ba 7d a5 3d
       0.11617434 -0.023607537 -0.07315555 0.08080621
000320 c9 4e 61 3d 4e 34 23 bd f3 64 a6 bc c2 f2 49 bc
       0.055006776 -0.039844804 -0.020311808 -0.012325944
000330 f6 e2 76 bd 2d 62 8c 3d 65 10 88 bb 93 7c 31 3d
       -0.06027504 0.06854663 -0.004152345 0.043331694
000340 e0 3e 52 3c a0 fc c3 3c 44 83 99 bd 88 3c 89 bd
       0.012832373 0.023924172 -0.0749574 -0.067009985
000350 b4 04 d4 bc 06 64 8e bb c6 7b 8b 3c 72 d1 0a be
       -0.025881149 -0.00434542 0.017026793 -0.1355646
000360 ed e4 f7 bd c1 bd 9e bd e8 65 4c 3c d3 48 ac 3c
       -0.12104211 -0.077510364 0.012475468 0.021030819
000370 16 1c eb 3c 39 b0 96 3b 2d 38 48 bd 86 3e 0f 3d
       0.028699916 0.004598644 -0.0488817 0.034971736
000380 01 61 42 3d 8d af 92 bd 3a fc a1 3c f1 3a 06 3c
       0.04745579 -0.0716239 0.019773591 0.008192764
000390 c7 e8 2b be 10 b6 e3 3d 98 1f 89 bd 60 c8 a6 bc
       -0.16788016 0.1111871 -0.06695479 -0.020359218
0003a0 c8 05 b2 3d a2 9b c5 bc 39 a4 64 3d a5 a4 8b bc
       0.08692509 -0.024122063 0.055820677 -0.017046282
0003b0 76 71 62 3d b0 93 e8 bb b4 58 34 bd ea 14 f9 3c
       0.055283986 -0.007097684 -0.044029906 0.03040548
0003c0 04 08 93 bd 98 9a d2 3b c3 47 26 bd ef 13 da bc
       -0.07179263 0.0064271204 -0.04059578 -0.026620833
0003d0 ee 58 17 3d d0 18 e6 3b ad 42 de bd 2b d9 9a bd
       0.036950044 0.007022001 -0.10852561 -0.07560953
0003e0 76 86 ae 3d e6 2f a0 bc bf 88 89 3c 12 f7 ec bc
       0.0852174 -0.01955409 0.016788838 -0.028926406
0003f0 bc 5f 61 be 4b 33 76 3c 7b 2f d2 3c aa 2b 96 bd
       -0.22009176 0.015026878 0.025657406 -0.07332547

lstm.bias_ih_l0 f4 [512]
000000 d0 45 ca 3d 50 07 a1 3d 87 8b 06 3d a8 77 31 3c
       0.09876597 0.07862723 0.032847907 0.010831751
000010 e2 da 93 bc 35 0b d5 3d a7 67 d9 be 80 a0 d8 bc
       -0.018048707 0.10402528 -0.42461893 -0.02644372
000020 b0 f6 b5 bd a6 38 5a bd d7 97 b7 3b 6a c6 18 3d
       -0.088849425 -0.05327668 0.0056028175 0.037298597
000030 35 f4 9d bb e7 c7 87 bc 34 28 43 3d 49 ca 30 bb
       -0.0048203715 -0.016574813 0.047645763 -0.002697604
000040 4d 10 3d 3e 9d db 52 3d 9a 1e ad bd b8 7b 14 3e
       0.1846325 0.05147897 -0.084531024 0.1450032
000050 6d ca d6 bc 90 a0 d6 bc 1e 0b 9f be 19 71 9c bd
       -0.026219571 -0.026199609 -0.3106317 -0.07638759
000060 70 1b 8b bb 01 6b 02 be 46 9b 05 bd 79 c0 be 3d
       -0.004245214 -0.12736131 -0.032618783 0.09314055
000070 31 02 80 3d 84 c6 e6 3c 48 49 bc bc cf 56 7e 3c
       0.06250418 0.028170832 -0.022984162 0.0155236265
000080 b7 e3 f0 bd a1 5f c7 3d 99 ef 36 3e 26 70 56 bc
       -0.11762183 0.09735037 0.17864837 -0.013088262
000090 34 91 3a bd c1 b9 47 3d ca be 0c 3d 0e ba 7b 3d
       -0.045548633 0.048761133 0.034361638 0.061456732
0000a0 26 a9 ff bc 61 56 98 bd 8a dc 87 3c 1d 5e 6f bd
       -0.031208586 -0.074383505 0.016584653 -0.058439363
0000b0 9f cb 83 3d 43 97 7b 3e de aa 01 3c af a9 89 3d
       0.06435322 0.2456942 0.007914273 0.06721818
0000c0 0b 06 82 3d 50 df 8c bd fa 73 2d bf f2 79 13 3d
       0.06348809 -0.06878531 -0.6775509 0.036004968
0000d0 0e c6 6c bd f1 11 12 be f3 28 dd bb ed 21 7f 3d
       -0.057806067 -0.14264657 -0.0067492663 0.062288214
0000e0 a4 9e a5 bd 8d 7d a0 3d 68 c5 2c bd 38 9f 8d 3d
       -0.08086899 0.07836447 -0.04218045 0.06915134
0000f0 41 d8 e5 3d 56 6d b4 bd 8a 66 2b 3d 36 f9 12 bc
       0.11222888 -0.08809917 0.041845836 -0.008970549
000100 e8 a5 28 bd a0 06 4d bb f0 51 88 3b 1a 71 7c 3d
       -0.041173846 -0.0031284466 0.0041601583 0.0616313
000110 53 da e4 bc 13 02 83 3d 23 22 71 3d 4a 6e 93 3d
       -0.027936136 0.0639688 0.058870446 0.0719877
000120 21 ba 4d bc cf 11 18 3c ae 3b 8c bd fc cd 0a 3d
       -0.012556584 0.00928159 -0.068473205 0.03388785
000130 cc ce fe bd ce 3e 89 bd 9d 84 ba 3d 8a 4c 09 bd
       -0.12441787 -0.06701432 0.09107325 -0.03352026
000140 c2 b3 34 3d b8 ea fc 3c 26 b2 3d 3d e5 30 03 bc
       0.044116743 0.030873641 0.046312474 -0.008007263
000150 62 a3 a7 3d b7 53 b7 bc 4b db c2 3d d4 6c 99 3c
       0.0818546 -0.022378786 0.09514483 0.018728651
000160 19 bb ab 3d ba e7 2e be 7b 37 e4 3d 8a fe 4a bd
       0.083852954 -0.17080584 0.111433946 -0.049559154
000170 cf 89 86 bd 5e b5 07 bc 62 80 45 bd db ab 09 3c
       -0.06569254 -0.008282987 -0.04821814 0.00840279
000180 d0 3c b8 3d 9e 0c e0 3d 19 d6 2a 3d ae 90 f7 bb
       0.08995974 0.109399065 0.041708086 -0.007555089
000190 fa e2 0c 3d da 0c 67 3e a2 29 63 bd 18 05 9b bd
       0.03439615 0.22563496 -0.055459626 -0.07569331
0001a0 8b ed 68 bd 44 6d 8a 3c 0f e4 d6 bd c0 db cf 3d
       -0.056867164 0.016897805 -0.104927175 0.10149336
0001b0 13 c2 a2 bc 72 09 5e 3d d0 39 04 3d e1 48 34 bd
       -0.019867932 0.054208227 0.032281697 -0.044014815
0001c0 5e 37 0b 3e ca 71 09 bf 6e 40 e4 bc e9 66 27 bb
       0.1359534 -0.53689253 -0.027862754 -0.0025543517
0001d0 ac 5d 99 bd f4 a0 c7 bc aa cd 42 3e fe 85 d6 bc
       -0.074885696 -0.02436874 0.19023767 -0.02618694
0001e0 aa 4f 8d 3d 1b 66 6d 3d d4 1c 9c 3d 35 3e 8d 3c
       0.0689996 0.057958703 0.07622686 0.017241577
0001f0 57 99 a2 3d ec b5 6f 3d 86 93 a6 be e6 1c 20 bd
       0.079394035 0.058523104 -0.32534426 -0.03909006
000200 7d ce 94 3c 76 91 b1 3d ae 79 9e 3d 6f 70 70 bd
       0.018164868 0.086703226 0.07738052 -0.058700975
000210 60 7f 11 3e dd d2 84 3d 2f ac c5 3d a2 9f d9 3d
       0.14208746 0.064855315 0.09651982 0.10626151
000220 06 48 6e 3d 30 c0 5d bd b0 6d 9e bd f5 e5 bb 3b
       0.058174156 -0.054138362 -0.07735765 0.0057342
000230 13 f5 2d 3d 1c 46 95 3c f0 48 19 bd d2 87 b4 bc
       0.04247005 0.018221907 -0.037423074 -0.02203742
000240 af e9 5e 3b 04 5a 05 be 7d 11 59 bd 72 9a 45 bd
       0.0034013798 -0.1302262 -0.052995194 -0.048242994
000250 d9 27 a5 bc a2 58 b5 bd 7d 2f c7 bc da 46 91 bb
       -0.020160602 -0.08854796 -0.024314636 -0.004433495
000260 3c 7d 37 bd 1e 73 bc 3c 17 86 f3 be 37 cb 1f bd
       -0.044797167 0.02300411 -0.4756324 -0.03901216
000270 11 5f 8a bc e6 16 d5 bc 50 13 8b bd 8d e1 9c bc
       -0.016891034 -0.026011895 -0.06790793 -0.01915052
000280 52 64 61 bd 22 08 cd 3d af d3 bc bb db 65 72 3d
       -0.055027314 0.10011317 -0.0057625393 0.05917917
000290 da 4a ad 3c ea e3 45 bd b0 75 52 bc 02 c6 9b 3d
       0.021153856 -0.04831306 -0.012845442 0.07606126
0002a0 9b 17 91 3c da 13 62 b9 af 0d 94 3d 1b a7 e5 bc
       0.017711451 -0.00021560435 0.072291724 -0.028033784
0002b0 db 02 cb bc 99 7f 9b 3d ef f4 60 bd 20 90 0f bc
       -0.024781635 0.07592697 -0.054921087 -0.008762389
0002c0 69 18 6a 3d 24 56 b4 3d 4c 4c cb bc c7 40 d0 3d
       0.057152186 0.088054925 -0.024816655 0.10168605
0002d0 15 d0 d0 3c cf 48 85 3d e4 06 de 3c 5b 00 24 3d
       0.025489846 0.06508028 0.027102895 0.0400394
0002e0 5b 38 82 3d 75 cd aa bc a9 13 01 3d bc fd 0a 3d
       0.06358405 -0.020849923 0.03151289 0.033933386
0002f0 d1 d8 27 bd fd d8 e4 bc d5 04 99 3d ea 5d 1e 3e
       -0.040978257 -0.0279355 0.07471625 0.15465513
000300 c6 09 8b bd ed 11 a6 3d a0 86 51 bd 30 7d 21 b9
       -0.067889735 0.08108888 -0.05115378 -0.00015400792
000310 c4 e3 79 bd 52 6f ec bc 04 41 c4 3d 22 55 a9 3d
       -0.06100823 -0.028861675 0.09582713 0.08268191
000320 f1 9c 76 bb c3 5c 91 3d ad ad 79 bd f2 fe 5e bd
       -0.0037630165 0.07097771 -0.060956646 -0.054442354
000330 72 7c 6b bd 10 d9 eb 3c 4e bf ed 3c b4 8c cc 3d
       -0.057491727 0.028790027 0.029021885 0.099877745
000340 90 38 06 3d ed 19 3c bd 62 ff bc bd de 01 89 bd
       0.032768786 -0.045923162 -0.09228398 -0.06689809
000350 ae 9d 7f 3d 72 11 04 bd da 0b b6 3d f6 98 7f 3d
       0.062406234 -0.0322432 0.08888979 0.062401734
000360 02 c4 5e 3d 6a e9 f2 3d 4c 9c 5c bc 7e 29 60 bc
       0.054386146 0.118609264 -0.013464998 -0.0136817675
000370 fd 89 26 3d ac ce 01 be 61 22 4a 3d 97 44 b0 3c
       0.04065894 -0.12676495 0.049349193 0.021517081
000380 1d 5b 51 3d 79 3f d4 3d 17 6f 10 3e dd 63 35 be
       0.051112283 0.10363669 0.14104877 -0.17713876
000390 0d ab 43 3e a4 df 0b bd bc a6 e9 3c 89 ec a5 bd
       0.1910822 -0.034148827 0.028521888 -0.08101756
0003a0 ba 59 3b bd 67 51 a3 bd fd cc 57 bd f8 7f a7 3d
       -0.045739867 -0.07974511 -0.052685726 0.08178705
0003b0 d2 91 00 3d e1 f6 82 3d 54 de da 3c f7 72 49 bd
       0.031389065 0.06394745 0.026717342 -0.049181905
0003c0 94 e5 96 3c fa 44 44 3e df 27 a4 3d 78 1a c3 bd
       0.018420018 0.19166937 0.08015417 -0.09526533
0003d0 eb d8 15 bd ab d8 a5 3d c9 00 a4 3d ad 07 37 bd
       -0.036583822 0.08097967 0.08007962 -0.044685055
0003e0 09 82 c0 bc a5 e2 32 3d 56 d6 3c bc ef 62 55 3d
       -0.023499506 0.043673176 -0.011525711 0.052096304
0003f0 ab af d3 3d 5e ea e8 3c f4 ad cc 3b 5b d8 8e 3d
       0.103362404 0.028432067 0.0062463228 0.0697486

lstm.bias_hh_l0 f4 [512]
000000 a7 3d 51 3d 30 6c ae 3d cf 1a c3 3d 70 54 c0 3b
       0.051084187 0.08516729 0.09526598 0.0058694407
000010 b2 81 39 3d b0 cd fe bc cc c9 e6 be 51 ee 32 bd
       0.045289703 -0.031103939 -0.45075834 -0.043684307
000020 00 34 15 3d 74 ec a7 3c 78 78 f2 bd a6 9e 89 bd
       0.036426544 0.020498492 -0.11839384 -0.06719713
000030 15 a3 96 3d af 45 a3 3d d1 9d ba 3d 5b 2f 90 bc
       0.07355324 0.079722755 0.09112132 -0.017600706
000040 e9 78 13 3e 69 7e ed 3b ab 12 a3 3d c5 23 e6 3c
       0.14401592 0.0072477353 0.07962545 0.028093228
000050 b7 01 05 be 00 98 83 3c 37 46 39 be 4d 08 48 3d
       -0.12988935 0.01606369 -0.18093191 0.04883604
000060 19 c4 82 3d a4 48 2d be ee b4 63 3d 7e 2b b7 3d
       0.06385059 -0.16922241 0.05559247 0.08943842
000070 05 00 7a bd fb 19 40 bd 60 67 99 bb 6a 56 38 bd
       -0.061035175 -0.046899777 -0.0046815127 -0.045004286
000080 fa dd 3b bd f9 29 d6 3d 3b 26 26 3e 0b 39 68 bd
       -0.04586599 0.104572244 0.16225521 -0.056695025
000090 3b 4b 94 3d a1 d3 2e 3d 9d 30 54 3c ff f7 2d bd
       0.072409116 0.042682294 0.012951043 -0.042472836
0000a0 e7 5b 1c 3a 8c 9c b5 bd 6b 26 fc bc 99 1d 4a bd
       0.0005964622 -0.088677496 -0.030780038 -0.049344633
0000b0 e7 48 9f 3d a7 fc e0 3d de 58 c1 bc b5 ac 46 bd
       0.07777577 0.109856896 -0.023601945 -0.04850455
0000c0 ed 10 82 3d 94 72 e7 3a 2f b9 4a bf 98 5a dc 3c
       0.063508846 0.0017658048 -0.7918882 0.026898667
0000d0 5d 70 07 bd 83 33 64 be 19 2d 55 bd 07 20 dd 3d
       -0.033066142 -0.22285275 -0.05204496 0.10797124
0000e0 79 de a4 3c 38 d0 cd 3c 56 f8 c6 3d 88 f0 4b 3d
       0.020125614 0.0251237 0.09715335 0.049789935
0000f0 ae e2 0f 3e b5 46 d8 bd 7e 07 75 3d a0 c6 ad bd
       0.14051315 -0.10560361 0.0598216 -0.0848515
000100 be 2c 3c bd 35 eb 23 bd 1e a2 69 bd 38 27 bf 3c
       -0.045941107 -0.040019233 -0.057039373 0.02333413
000110 12 f1 86 bd b6 11 4c 3d 9e 07 12 bd d5 29 35 bc
       -0.06588949 0.049821578 -0.035651796 -0.011057337
000120 36 19 be 3d 3d 91 b5 3c 14 ea 37 bd a3 30 c0 3d
       0.09282152 0.022163982 -0.04490097 0.09384277
000130 c3 48 9e bc 19 b5 61 bd 99 ec a2 bc 74 0e 05 3d
       -0.019321805 -0.05510435 -0.01988821 0.032484487
000140 10 5c 35 bc 2d 93 29 bd 3e fc 99 bd 8a ff 8b 3d
       -0.011069313 -0.041400123 -0.075188145 0.068358496
000150 26 4a 84 3d 48 2c 36 bc cc 94 a7 3d 1d 8e 78 3d
       0.06459455 -0.011118956 0.081826776 0.060682405
000160 20 30 09 bd 5d b9 76 be c2 43 1c 3d 22 97 d3 3b
       -0.03349316 -0.24094148 0.038150556 0.0064572254
000170 2e da 86 3d 62 30 41 3c 57 4b a1 bd 9b 9d 9e 3d
       0.06584583 0.0117913205 -0.07875698 0.077449046
000180 70 5b ac 3d 2f 74 2e 3d 11 47 1a 3e a5 ad b3 ba
       0.08415878 0.04259127 0.15066172 -0.0013708366
000190 cb 1b b5 3d 03 3c f4 3d c6 77 2c 3d 10 29 c2 bc
       0.08843192 0.11925509 0.042106412 -0.02370122
0001a0 a6 e5 a8 bd 33 aa 05 3c c0 1d 31 3d 16 aa 88 3d
       -0.08246927 0.008158254 0.043241262 0.06673066
0001b0 f7 36 19 bd 40 c4 d0 3b 45 f7 06 bd e2 c9 28 3d
       -0.037405934 0.006371051 -0.03295066 0.041208155
0001c0 96 4d b4 3c a6 fa ec be e1 16 3c bd 59 34 26 3e
       0.022009652 -0.4628498 -0.045920257 0.16230907
0001d0 3f eb 97 3d e0 ee c1 bc c9 cd d5 3d 9d 5f b7 bd
       0.074179165 -0.023673475 0.10439641 -0.08953784
0001e0 0e 0a 16 bd ee 92 07 3c c7 c1 f7 3d bd ae d9 3d
       -0.036630683 0.008274777 0.12097507 0.10629032
0001f0 29 d9 35 bd ad 65 a1 3d 30 da ba be 4a 7d ab bd
       -0.044396553 0.07880721 -0.3649459 -0.08373506
000200 a8 5e 62 ba 30 e7 30 3d 1e 64 8b 3b a4 ef 74 3d
       -0.00086353207 0.043189228 0.0042538783 0.05979885
000210 d9 10 8a 3b 00 40 81 bd e9 12 1d 3e 6a bf 1f 3d
       0.004213434 -0.06311035 0.15339245 0.039000906
000220 dd 62 50 bd 46 61 26 3d 7b 47 16 be 03 4a ae 3d
       -0.050875533 0.04062011 -0.14675705 0.0851021
000230 7c 2f 8c 3d 1e b9 38 3d 1c 18 a7 bc 7d 5f 6a 3d
       0.068449944 0.045098417 -0.020397238 0.05721997
000240 05 32 7d 3d 7f e7 30 3d 82 a5 3b 3d f4 9b f7 bd
       0.06181528 0.043189522 0.045812137 -0.120902926
000250 c0 72 c7 bc 44 ca f2 bd f1 20 09 bd 0f b0 b0 bd
       -0.02434671 -0.11854985 -0.03347868 -0.086273305
000260 f4 09 00 3d 68 19 5b bc 6e 04 de be 60 19 9a bd
       0.031259492 -0.013372757 -0.43362755 -0.07524371
000270 76 be 0e 3c e0 aa 17 3b 80 7d 03 bc 8b 10 9d 3c
       0.008712402 0.002314262 -0.008025527 0.019172927
000280 66 44 44 bd cc 10 50 3c 49 a4 b1 3d 1b 20 75 bc
       -0.047916792 0.012699317 0.08673913 -0.014961268
000290 2e 6c 17 3e 9a b3 71 3d 58 cd 56 3c e2 da b0 bc
       0.14787361 0.059009172 0.013110481 -0.021588746
0002a0 d3 ab 73 bd 8b 0e cc bb e5 8e b2 bd 48 ab c2 3d
       -0.059490036 -0.0062273196 -0.08718661 0.095053256
0002b0 4c b9 90 bd ea 00 fe bc 3e a5 98 3d 7f 9c 94 3d
       -0.070665926 -0.031006295 0.074533924 0.07256412
0002c0 7e e3 46 bd c6 44 7f bd 47 ae db bc 94 04 e3 3d
       -0.048556797 -0.062321447 -0.0268165 0.110848576
0002d0 17 57 0d 3e 68 53 1c bd 94 ab ae 3d df f2 02 3d
       0.13802753 -0.03816548 0.0852882 0.0319699
0002e0 af 58 8c bc a5 a6 92 bd 51 d5 26 3d 72 3a eb 3b
       -0.017132131 -0.07160691 0.040730778 0.007178598
0002f0 1b a5 3f 3c 81 c7 a3 3c 5e e9 07 bd ff 98 f4 3d
       0.011697079 0.019992592 -0.03318154 0.11943244
000300 7d b2 99 3d 12 0f 56 3c 43 b0 ad bc be 9f 18 bd
       0.07504747 0.0130651165 -0.021202212 -0.037261717
000310 44 c1 9e bd ee b8 0b bd 94 69 be 3d b3 07 bc bc
       -0.07751706 -0.03411191 0.09297481 -0.02295289
000320 d1 87 c2 bc 34 b2 8c 3c 4f e5 20 3d d8 68 88 bc
       -0.023746403 0.017174818 0.039281186 -0.016651556
000330 f9 61 f1 bd 78 6f ee 3c a4 df 28 3d 42 fd 1f 3d
       -0.11786265 0.029105887 0.041228905 0.039059885
000340 d2 79 e8 bc 40 05 f1 3b b0 f4 36 3d 4f 55 3e bd
       -0.028378401 0.007355362 0.044666946 -0.046468075
000350 91 49 9e 3d 2c 25 9e bd 03 d8 bd 3d 64 4f 06 bd
       0.077288754 -0.07721934 0.092697166 -0.032790557
000360 a4 d2 50 bd fd 6b 19 3e 27 b6 0a 3e 80 f4 e2 bc
       -0.050982133 0.149826 0.13546048 -0.027704477
000370 8f 9c 66 3c ca 46 81 be e4 a0 50 3a db b6 ef bd
       0.014075412 -0.2524932 0.0007958545 -0.11704799
000380 c1 54 84 3a 63 c4 17 3d 45 ca 51 3d 8b 09 d0 bd
       0.0010096059 0.037052523 0.05121829 -0.1015807
000390 08 af 4f 3e de b6 bb 3c 00 81 fa 3c 83 9c dd bd
       0.20281613 0.022914346 0.03057909 -0.10820868
0003a0 74 3f 87 3d 52 6c 89 bd 7b eb 2b 3c 1b 2f bc bc
       0.066038996 -0.067101136 0.010493155 -0.02297168
0003b0 22 a4 a7 3d 1e 31 79 3d bb 41 a8 3d 59 b9 b0 bd
       0.08185603 0.060837857 0.08215662 -0.08629102
0003c0 83 8d 45 bd c8 5d 2d 3e 44 c5 12 3d fa 10 1a bc
       -0.04823066 0.16930306 0.03583266 -0.009403462
0003d0 fa 72 48 3d 51 db 67 bd ea 3f b3 bc 5a a6 f8 bd
       0.048937775 -0.05660564 -0.021881063 -0.12141104
0003e0 f4 a0 d4 3d ff 5e 9a bd 1b fd 85 3d 0f 17 26 3e
       0.10382262 -0.0753765 0.06542417 0.16219734
0003f0 4a 1a ff bc 75 24 94 3d ac 51 19 3d 64 5c e8 3c
       -0.031140465 0.07233516 0.037431404 0.028364368

fc.weight f4 [2, 128]
000000 7a 65 72 3f f9 90 ec bf 94 14 4c 3f 77 a1 8c be
       0.9468609 -1.8481742 0.797189 -0.27466938
000010 48 bc 3c 3c 3a c1 eb 3e ce 4d b6 3f 65 8a 3c 3f
       0.011519499 0.46045858 1.4242494 0.73648673
000020 ea 2b bf 3c 3b 6f 15 bd e5 9f 3a 3e ae 13 ae bd
       0.02333637 -0.03648303 0.18225057 -0.08499847
000030 25 f7 31 bf de ef 6d bd ef 84 46 3e 50 c9 36 3d
       -0.6951774 -0.058090083 0.19386648 0.04462558
000040 e4 81 82 3d 94 dc 80 be 4c ab 97 bd 03 c9 d6 be
       0.06372431 -0.25168288 -0.07405719 -0.41950235
000050 13 e9 a3 3e b9 eb 8a bf 1f 83 32 40 62 19 d6 3d
       0.3201376 -1.0853187 2.789253 0.1045406
000060 fa 7c 89 bc 65 70 8d bd fe 8d 41 bd 7c b1 61 be
       -0.016783226 -0.06906203 -0.047254555 -0.22040361
000070 32 4e da be d2 4b fa 3c 8a d0 42 3d 1c 88 33 3d
       -0.42637783 0.030553732 0.04756216 0.043830976
000080 22 6f 0d 3f d8 fc 6c 3f 5e fa 09 3f 28 3c f5 be
       0.552477 0.9257331 0.53897655 -0.47897458
000090 52 c3 c3 be 20 fa a4 bd b3 b0 b1 be 91 10 f6 3c
       -0.38234955 -0.0805552 -0.34705123 0.030037196
0000a0 a5 76 65 3f 7f 27 15 bf 4c d6 7c 3d 6f c5 b9 3e
       0.8963416 -0.5826339 0.061727807 0.36283442
0000b0 d4 8f 61 3d 2a f0 cc bf 84 39 26 bf 3b 92 d9 3e
       0.055068806 -1.6010792 -0.6493151 0.42494377
0000c0 99 93 d1 3e b0 9d f5 3d 89 82 4f c0 74 f4 cb 3e
       0.4093292 0.11992967 -3.2423422 0.3983494
0000d0 dc 74 ac bd 39 0c 46 3e 92 1e b9 be 5d 08 44 bd
       -0.08420727 0.193406 -0.36156136 -0.04785954
0000e0 5a 1b 17 3f 67 60 52 3e 65 55 72 bd be 9d 91 bf
       0.5902611 0.20544587 -0.05916347 -1.1376264
0000f0 46 2f 21 3f 29 a0 e6 3e ae c4 69 bd d1 bc 06 3d
       0.6296276 0.45044068 -0.057072334 0.032894913
000100 96 0d 13 3d be c4 4d bc 94 84 dc bd 12 a7 96 be
       0.03590163 -0.012559114 -0.10767475 -0.2942434
000110 5d 7f 42 3f 79 ce 3d 3d 05 b3 09 3e 4c 55 7b 3f
       0.7597559 0.046339486 0.13447197 0.9817703
000120 dd de 43 bf 4a d6 85 3d 44 22 fa bd cb 65 45 3f
       -0.7651194 0.06535013 -0.12213567 0.7710845
000130 bb 2f ee 3e 48 3b 63 3c f7 88 60 bf aa 9e 4a be
       0.4652079 0.013869114 -0.8770899 -0.19787088
000140 67 0b 00 3c 73 4b 97 bd c0 d1 d3 3e 27 34 a3 bc
       0.0078152185 -0.07387438 0.41370964 -0.01992233
000150 ec 64 85 3c da 4d 03 3d 1b 9d 75 bf 20 ac 13 be
       0.016283475 0.032056667 -0.9594285 -0.14421129
000160 ec 6b 56 bd 5b e8 1d 3f 8b e1 1b 3e 45 c4 10 bd
       -0.052349016 0.6168267 0.15222757 -0.035343427
000170 55 eb e7 3e d0 d5 f6 bd 02 c3 74 bf 47 4f 2b bf
       0.45296732 -0.120525 -0.9561006 -0.6691784
000180 86 4f 98 3e 8b ef 8c 3d 36 dc 1c c0 3f 22 eb 3e
       0.29748172 0.06881627 -2.4509406 0.45924565
000190 6a 0b ab 3f 8c 7d ef 3c 05 48 8a 3d 8c 3c 13 bd
       1.3362858 0.02923467 0.06752018 -0.035946414
0001a0 60 63 da 3d 7e 69 55 be 60 4c 20 3f fe be 32 3f
       0.106634855 -0.20841023 0.6261654 0.6982268
0001b0 ab a1 90 3e 44 77 c4 bb b2 0e 08 bc 37 ce 26 3c
       0.28248343 -0.005995663 -0.008304285 0.010181001
0001c0 2e 81 c2 3f dd 6b 7d bf 18 30 c0 3c 1d 80 17 3f
       1.5195673 -0.9899271 0.023460433 0.5917986
0001d0 e5 48 7b 3d c2 ae a3 bc 87 69 db 3f 58 e8 4d be
       0.061348815 -0.019980792 1.7141579 -0.20108163
0001e0 8d bb c6 3d 70 cd 82 be 73 1c b6 3e 65 b0 05 bd
       0.09703741 -0.2554736 0.3556858 -0.032638926
0001f0 c3 90 a1 be 4d 5f 94 be 3a be 6e 3e eb 38 ae bc
       -0.31555757 -0.2897896 0.23314753 -0.021267375
000200 eb b7 73 bf 10 8e ee 3f 95 94 55 bf 7a fb 47 3e
       -0.9520251 1.8637104 -0.83429843 0.19529524
000210 d2 5b b7 3c c1 01 ef be 32 26 b5 bf cb 38 37 bf
       0.02238265 -0.46681026 -1.4152281 -0.71571034
000220 01 ce e4 3b ed 13 8d 3b aa ac 97 be 43 ef e4 bc
       0.0069825654 0.004305354 -0.2962392 -0.02794612
000230 54 f0 35 3f 99 ce d1 3c 29 cb 9a be 94 28 a3 3c
       0.71069837 0.025611209 -0.30233124 0.01991681
000240 65 9e 4d be 38 78 91 3e ab 4d 35 3c de 05 d7 3e
       -0.20079954 0.28412032 0.011065881 0.41996664
000250 e1 cf d2 be cc f0 90 3f 28 2c 36 c0 ca 69 3f bd
       -0.41174224 1.1323485 -2.846445 -0.046731748
000260 ea 5f 36 bd e6 eb 37 3e b9 4e 87 3d 27 93 a7 3e
       -0.044525065 0.17961082 0.06606812 0.32729456
000270 27 5e bf 3e 02 b1 98 3d 09 37 fe 3b 2e 5c 4a bd
       0.3737652 0.074556366 0.0077580255 -0.049404316
000280 0a d0 18 bf f7 63 6c bf e9 bc ed be 05 0d 00 3f
       -0.5969244 -0.92340034 -0.4643319 0.50019866
000290 3a 93 03 3f 6a ed 99 bd 81 1c 4e 3e d6 5e 88 3b
       0.51396525 -0.07515986 0.20128061 0.004161696
0002a0 b3 67 4a bf 98 4c 13 3f 38 7a f4 3c d0 04 c4 be
       -0.7906448 0.5753875 0.029843435 -0.38284922
0002b0 85 b4 c6 3c a7 64 c8 3f 4f b1 15 3f 3b c0 ac be
       0.024256 1.5655717 0.58473676 -0.3374041
0002c0 ee d5 d3 be 4e dc 4c be 7a 69 4d 40 a7 9d e2 be
       -0.41374153 -0.20005915 3.2095628 -0.44260904
0002d0 d7 8a 0f 3e 5d d1 61 be a4 ef db 3e 8a 1f 02 3e
       0.14017807 -0.22052522 0.4295627 0.12707344
0002e0 4e 80 01 bf 5e ae 3c be cd 8e ac 3d d0 53 88 3f
       -0.505864 -0.18425891 0.084256746 1.0650578
0002f0 98 14 40 bf 3d ae f0 be 15 ae f4 bc 0d 15 37 3c
       -0.75031424 -0.47007933 -0.029868165 0.0111744525
000300 0f 82 28 3d 82 e0 cb bd 65 97 c7 3d b3 82 52 3e
       0.04113966 -0.09954931 0.09745673 0.2055767
000310 a3 53 43 bf 0b 93 25 3d c2 65 2d be dd bc 8a bf
       -0.76299495 0.040423434 -0.16933349 -1.0838886
000320 8a 04 4b 3f fb 3a 81 3b 3f c9 b8 3d 94 85 5a bf
       0.793038 0.0039437986 0.0902276 -0.85360074
000330 25 69 13 bf 9e d4 a7 3c 1e 2c 82 3f 1f 76 b8 3d
       -0.5758231 0.020487126 1.0169713 0.09006905
000340 3e ee e3 bc 2c 49 e5 bc ec 96 ca be 1c 22 c5 3c
       -0.027823564 -0.027988993 -0.3956827 0.024064116
000350 a3 0e 91 bd 0d c4 fa bc cb c8 85 3f 61 0f 80 3d
       -0.0708287 -0.030611062 1.0451902 0.06252933
000360 85 b5 af 3c cf 5e 24 bf 69 ca 67 be be 17 0e 3e
       0.02144886 -0.64207166 -0.22635807 0.13876244
000370 d9 3a d3 be 4f c3 50 3e 44 2d 84 3f 0f aa 39 3f
       -0.41255835 0.20387004 1.0326314 0.72525114
000380 44 2b 62 be 2f ac ab bd 3b f3 1a 40 c7 7a f4 be
       -0.22086817 -0.08382451 2.4210956 -0.47749922
000390 c1 1f a9 bf 70 03 35 3d 4d 11 89 bc f2 0e 8c bd
       -1.3212816 0.04419273 -0.016731882 -0.06838788
0003a0 c4 b5 86 be 4b 5e 8d 3e f4 7b 1a bf f7 5b 12 bf
       -0.2631055 0.27611002 -0.6034539 -0.5717158
0003b0 99 1e b0 be 8c 6f 0a bd 10 fc 42 bd 14 d2 b0 3b
       -0.34398344 -0.033797786 -0.047603667 0.005396137
0003c0 ff 6a cb bf 69 9d 8e 3f f8 35 96 bd 48 c8 29 bf
       -1.5892028 1.1141788 -0.073345125 -0.6632123
0003d0 d1 10 3d bd 83 bd 85 3c ca d1 d8 bf ac c2 3b 3e
       -0.046158615 0.016325718 -1.6939023 0.1833598
0003e0 72 8c bc bd 9b 90 9c 3e 6e c0 c9 be f4 47 29 3e
       -0.09206475 0.30579075 -0.39404625 0.16531354
0003f0 79 fa 8a 3e 45 fd 81 3e d8 9d 4c be 6e 46 aa 3c
       0.2714422 0.25388542 -0.19982088 0.020785537

fc.bias f4 [2]
000000 f7 cf e5 3e 44 3c a0 be
       0.44885227 -0.3129598
