outputs/models/lstm_model.pth (torch, 281059 bytes, 6 tensors)

lstm.weight_ih_l0 f4 [512, 6]
00000000: cb4a 31bc 3022 0cbd ed4c 613d c65c 893d
00000010: b897 8b3d 9429 473e c2cb 9f3c c0e4 fd3c
00000020: cd67 3d3c 5d0e 4d3d aff3 a43d d79e d13e
00000030: 6478 ea3b efb8 de3d 7f62 913d a871 883b
00000040: 373b 0d3e f513 843d 5a0e 673d 085a e13c
00000050: 68c4 c43c 5650 6c3d 0de0 ae3d 805d 6ebd
00000060: 9571 fd3a 6180 d93d 701c 353d 51b0 c53c
00000070: 95a2 c63d 9e25 6abd b551 033e c1be c53d
00000080: fc6c 563d c782 3c3c d464 24bd 15ce 67be
00000090: c75d b6bd 62dc 4cbc 7c75 663e 033a 05be
000000a0: ca9b 37be 139b 5a3f eff4 be3d 66f4 f03d
000000b0: e29b ea3c dbf9 41bc a80d 843d f583 8fbd
000000c0: 671e 98bd 8a4a 2cbd 193e 0bbd d433 50bd
000000d0: 787d 89bd bf06 083d f3a3 493d 61d9 653d
000000e0: 852d c7bc 0f4d 893d c4e3 8ebc 4bb2 00bd
000000f0: 07ca 6bbc 0a75 d33d 07b0 42bd 0b84 f7bd
00000100: badf fdbc 8b46 05be 4b7d abbd a211 713d
00000110: 4133 0f3d 4383 9bbc 23d5 193c 0add 5e3d
00000120: 8677 4b3b 26df a73b 134d fbbc ac01 f43d
00000130: 19f4 f13d bdce 27bd 7380 0c3d 5af1 3ebd
00000140: 457a 073d 239a 23bc baf3 9ebd c05e 48bd
00000150: 6a87 b63c 76de 993d 0e4e d9bc 97c4 d23d
00000160: 6f89 0e3d 8539 96bc 4fa6 993d 4056 14bb
00000170: a409 ef3c 5345 813d bc59 e03c 1bd6 943d
00000180: f864 7abd 33f7 833d a6f7 123d 367a 073e
00000190: 94a4 d63d 103c 2d3e dd62 bd3d 6c84 523c
000001a0: 0ddc d33d 0217 923c 025a e63d e41f f93b
000001b0: 46b2 7e3d 9aba e1bc f87b b83c bebb 2c3d
000001c0: fed5 2e3d 73b5 8a3d 26c0 a13d 5105 983d
000001d0: 3be5 02bd 6e83 b23d d0d6 c23d a04e 87bd
000001e0: cb4f a7bd d3f7 c33d e7e6 55bd fcb0 bfbd
000001f0: 17b4 85bd 01c4 553d 69cf 9f3d e7ec 943d
00000200: 9563 843d da09 493d 6ef0 edbc 00af 873b
00000210: e4fa a1be 320e 183d c443 9c3d dea0 d13c
00000220: f621 f7bd 2500 223f 972f 363c cb53 303d
00000230: 911d 1b3d 09f3 3cbc c44d 6cbd 36d6 8ebd
00000240: ac77 9dbd 6399 b3ba ff7b 1b3c f5a2 35bd
00000250: bf88 b5bd ebca 9f3c 37b2 5cb5 6c82 1abe
00000260: ba64 7bbd 7576 febc 8d27 8dbd 8610 56bd
00000270: 19c3 8e3d 68f1 11bc e14f a03d 690c 9f3d
00000280: a823 663c 3e89 073d f596 d1bc 1e78 813c
00000290: ea26 853c 0c23 f83d 16be 3ebc 857c d53b
000002a0: 2d8e d4bd b807 e93d 7907 ee3d 2d9d 16bb
000002b0: aee0 bfbd c4f9 9c3e 5c84 4b3d be67 aebc
000002c0: d393 a7bd 7eb5 ed3c f500 2b3d ab78 75bd
000002d0: 9e46 de3c d9c9 92bc 41c3 30bd 3980 923d
000002e0: b0d3 8abc e202 383d f5a1 89bd bd49 cabd
000002f0: c716 363d a9c9 93bd eeb5 0d3d 89ce 923d
00000300: 33c7 043d 83fb a03e b31f 35bd 066f a4bd
00000310: 2a0e 8fbd 8c3a 90bd c80a 3ebd 22b3 fd3d
00000320: 83dd e23d 4cb5 bbbc c441 c33d f6da d83c
00000330: 7e1f e73d 11e9 463e c9b5 b0bd 7d18 ac3c
00000340: a0cd 4e3c 308e 9dbe d44b bdbb 3c8d 75bb
00000350: 7bcf a63b 9c88 c43d d533 3f3c 3899 303d
00000360: 454d c2bb 68e9 8b3d 0b78 c83c 41c6 953d
00000370: cff8 81bb 4e5c 7ebd 958f df3b 43bb 733c
00000380: 890c 60bd f1cc 87bd 0c74 3a3d fe22 49bd
00000390: 8361 883d bfdf 8a3d fa3d f8bc ddaf dd3d
000003a0: 230d 42bb ba5d db3c 8c3c 253d e7c8 a8bd
000003b0: e265 423c 6a83 7dbd 18b9 803c e28e 713d
000003c0: 6e30 c63d 94ca a3bc 5d8e a13d 168e 413d
000003d0: 8de2 b43d 5818 21bc 2f8d 54bd ea21 213d
000003e0: 212e 273e cab8 c33a 1bc0 22bc 640e 013f
000003f0: 2f98 02be be28 89bc 5342 9cbd 44e7 0cbd
-0.010821055 -0.03421229 0.055005003 0.06707148 0.068160474 0.19449455 0.019506339 0.030992866
0.011560393 0.050062526 0.080542915 0.40941498 0.007155465 0.10875117 0.07098865 0.0041639395
0.1379212 0.06449119 0.05641017 0.02750875 0.024019435 0.0576938 0.08538828 -0.058194637
0.0019336218 0.106201895 0.044216573 0.024131926 0.09698979 -0.05716478 0.12824138 0.09655524
0.05235003 0.011505789 -0.04013522 -0.22637208 -0.08904605 -0.012503715 0.22505754 -0.13010411
-0.17930523 0.85392874 0.09324061 0.11765365 0.028638784 -0.011839355 0.06447917 -0.07007591
-0.07427674 -0.042063273 -0.033994768 -0.050830677 -0.067133844 0.03320956 0.04922862 0.05611551
-0.024313698 0.06704151 -0.017442591 -0.031420033 -0.014391429 0.10325058 -0.047531154 -0.12085732
-0.03099047 -0.13015191 -0.08373507 0.058854707 0.03496099 -0.018983489 0.009389195 0.054410018
0.0031046583 0.005123037 -0.0306764 0.119143814 0.11814136 -0.040968645 0.034302186 -0.04661689
0.03307559 -0.0099854795 -0.07761331 -0.048918486 0.022281367 0.07513134 -0.026526477 0.10291403
0.034799036 -0.018337974 0.07502424 -0.0022634417 0.029179402 0.06312051 0.027386539 0.072674
-0.061131448 0.06443634 0.035880707 0.13230214 0.104806095 0.16917443 0.09247372 0.012848955
0.10344706 0.017833237 0.112476364 0.0076026786 0.062181734 -0.027554799 0.02252005 0.042171232
0.042684548 0.0677289 0.078979775 0.07422889 -0.031956892 0.087164745 0.095136285 -0.066067934
-0.08169516 0.09568753 -0.05222216 -0.09359929 -0.0652849 0.052188877 0.07803232 0.07271748
0.06464306 0.04908166 -0.02904531 0.0041407347 -0.31636727 0.037122913 0.07630113 0.025589403
-0.120670244 0.6328147 0.011119745 0.04304866 0.037869994 -0.0115325535 -0.05769135 -0.06974451
-0.07688841 -0.0013702329 0.009490012 -0.04434486 -0.08863973 0.019505939 -8.2215723e-07 -0.15088814
-0.061375357 -0.031062344 -0.06892309 -0.05226185 0.06970806 -0.008907653 0.07827736 0.07766039
0.014046587 0.03308987 -0.025584677 0.015804347 0.016253907 0.1211606 -0.011642 0.006515088
-0.103786804 0.11378425 0.11622519 -0.0022981868 -0.09369026 0.30659306 0.049686775 -0.021289703
-0.08182492 0.029017206 0.04174896 -0.05992953 0.027133282 -0.017918514 -0.04315496 0.07153363
-0.016946644 0.044924624 -0.06720344 -0.09877346 0.044455316 -0.07216198 0.03459733 0.071683
0.032416534 0.31441888 -0.044219684 -0.080289885 -0.069851235 -0.07042417 -0.046397 0.123876825
0.11077406 -0.022913598 0.09534028 0.026471596 0.112853035 0.19424845 -0.08628423 0.02100777
0.012622267 -0.30772543 -0.0057768617 -0.0037468215 0.0050906516 0.09596369 0.011670073 0.04311487
-0.0059296214 0.06831628 0.024471303 0.073132046 -0.003966428 -0.062099747 0.0068225362 0.01487619
-0.054699454 -0.06630886 0.045520827 -0.049105637 0.06659224 0.067809574 -0.03030299 0.10824559
-0.002960988 0.02677809 0.040340945 -0.08241444 0.011865111 -0.061892904 0.01571326 0.058974154
0.09677206 -0.019994058 0.07888482 0.047254644 0.08832274 -0.009832464 -0.051892456 0.039338984
0.1632619 0.0014932391 -0.009933497 0.50412583 -0.12753366 -0.01674306 -0.07629838 -0.03440024

lstm.weight_hh_l0 f4 [512, 128]
00000000: d8bf 26be 48ef dd3c eb4d 37bd 0deb 7c3d
00000010: c18c 423d dc28 6cbd 5c12 08be 70ae e1bc
00000020: e51a d03c 967c 393d 9a99 ddbd 6e90 9dbb
00000030: d56b c3bc 0a57 183d eb5a da3d 1aa5 1c3e
00000040: 6664 f93d 883e 54bd b35e a6bb dc56 87be
00000050: f673 13be 122e 0c3e bc8b 1fbe 77cd 41bc
00000060: b37c 813d bad9 ba3d f891 30bc 5d76 733c
00000070: 3c33 0f3c 4347 ac3d b4b1 8a3d 655f 74bd
00000080: 72fc dd3c 57e6 0fbe cf13 24be 3b3c 003e
00000090: 1af5 f53c ca89 4abc 4825 44bd b7f0 733d
000000a0: 3e71 68be 874c f03c 371d a73d fe4a 853d
000000b0: 5fa4 423d e063 803e 1dfb ed3d b764 acbd
000000c0: 54c4 293d 2904 8cba 75be 873d f463 d0bd
000000d0: fc51 c8bd efe5 d03d 07d2 5b3d 2658 9d3d
000000e0: 2fce 03be e269 33bd c80c 4cbd 2996 f6bd
000000f0: 9ec1 48be 2fac d4bd 0828 bb3c 21b3 22bd
00000100: a060 693d 0217 693e 45ea 003e 783a 233c
00000110: 697f 8c3d c0e5 4f3b b907 90bc c689 59bd
00000120: 4cb2 ccbc cb40 c53c d83b 0fbd 7569 eabd
00000130: 8ce7 c9bd ade1 f33a a824 573d 9835 99bb
00000140: b407 a53c 4551 9bbd cb04 b13c 8970 07bd
00000150: d23f 133d f8d5 ac3d 6e42 843e 4ec8 3ebe
00000160: 359d 2b3a 96bd 2cbe 1702 4dbd d94d 39bc
00000170: 265f 313b dcb8 4d3d 36ec 80be 3f7b 6cbd
00000180: 8f6f 1dbe 4fc0 aa3c 1889 a63e f100 a9bd
00000190: c13d 91be 9caa 5a3e 0553 a53d 7221 493d
000001a0: d40f a63c 15d7 2ebd b4e3 1b3d d551 803c
000001b0: 7d59 ecbd e878 0e3c ee56 133d 6403 e83c
000001c0: 6b71 6fbe 11cf b73c b98a 40bd c481 27bc
000001d0: 95d0 8f3d 3ed6 14bc 7381 a5bb 9458 77bb
000001e0: d257 063c 2995 0bbf 7062 e43c 35b0 8ebd
000001f0: 8f0c 2b3c 6122 30bf b67d f4bd 1b6b 0a3d
00000200: 3fe1 5abd 6b3e 163d e68a bfbd 256b 893d
00000210: 2ec5 7bbc 7137 9d3c 2e9a b4bd 6f8c b43d
00000220: e53e aabc 68d6 243d dd6e 833d 9cf9 20bd
00000230: 96a2 04be 4880 4ebd d72b 10bd 39d8 8d3d
00000240: 4232 213e 398d 97bd f48c 1c3d ef6b bf3b
00000250: 0084 0ebe 22a5 0dbc 1791 6ebd cedc 693b
00000260: 08ab 653c fd37 af3d c7cd 88bd 848e b6bd
00000270: 43ef 093d abf2 903d 3277 a1bd deb7 58bd
00000280: 7ffb 273e ca26 d3bc e2f1 62bd ab2e 683b
00000290: 5f0f 04be ea14 3abd 098d d7bc 08c6 73bd
000002a0: 1244 e33d dae7 af3d 4c2c 833c 1e12 3dbd
000002b0: 0674 aebd 7184 97bd e8cd c13d 4ad8 ddbd
000002c0: 733a a93c f3fa 633b ef73 de3c 1122 a73d
000002d0: b018 28bc 860f 3d3d cb68 16be 82ed 98bd
000002e0: 3258 df3d 7255 563c c66b a8bd 9c94 a4bd
000002f0: 8a3f c6bd fec0 063e 8d3a a93d 6b68 91bd
00000300: 5d06 a63d cb26 fb3d 10c0 fdbd abcb 5d3d
00000310: 6202 ee3d 9864 c1bc 94d2 95bd 6693 a53d
00000320: 5f4d 613d 4e34 23bd f364 a6bc 16dc 49bc
00000330: f6e2 76bd 2d62 8c3d 2710 88bb 937c 313d
00000340: e03e 523c a0fc c33c ab6d 99bd 883c 89bd
00000350: b404 d4bc 0664 8ebb f2bf 8b3c 32dc 0abe
00000360: ede4 f7bd 39ce 9ebd e865 4c3c d348 ac3c
00000370: 8f72 eb3c 0656 953b 4b63 48bd 863e 0f3d
00000380: 0161 423d 8daf 92bd 8452 a23c f13a 063c
00000390: 03f3 2bbe a1cb e33d 981f 89bd 60c8 a6bc
000003a0: c805 b23d 1bf2 c5bc d3cf 643d a5a4 8bbc
000003b0: 949c 623d b093 e8bb b458 34bd ea14 f93c
000003c0: f307 93bd 4f20 d43b c347 26bd ef13 dabc
000003d0: ee58 173d d018 e63b 9542 debd 2bd9 9abd
000003e0: e570 ae3d e62f a0bc d488 893c 5c4d edbc
000003f0: 7c6a 61be f885 753c 7b2f d23c aa2b 96bd
-0.1628412 0.027091637 -0.044752043 0.0617476 0.047497515 -0.057656154 -0.13288254 -0.027548999
0.02540345 0.04528483 -0.10820313 -0.004808477 -0.02385513 0.037192382 0.106618725 0.15297356
0.121773526 -0.051817447 -0.005077207 -0.26433456 -0.14399704 0.1368945 -0.15580648 -0.011828772
0.063226126 0.09123559 -0.010776989 0.014859763 0.008740243 0.084120296 0.067721754 -0.059661288
0.027097914 -0.14052711 -0.16023181 0.12522976 0.0300241 -0.012361953 -0.047887117 0.059555735
-0.22699448 0.029333366 0.08159869 0.06508444 0.047520038 0.250762 0.11620162 -0.08417647
0.041447 -0.0010682392 0.06628124 -0.101753145 -0.09781262 0.10200106 0.053667095 0.076828286
-0.12871622 -0.04380215 -0.049816877 -0.120403595 -0.19605109 -0.10384404 0.022846237 -0.039721612
0.056976914 0.22762683 0.12589367 0.0099626705 0.06860239 0.0031722635 -0.017581807 -0.053109907
-0.024987362 0.024078747 -0.03496918 -0.114458956 -0.09858617 0.0018606685 0.052525192 -0.0046755783
0.020145275 -0.0758386 0.02160873 -0.033066306 0.035949536 0.08439249 0.25831932 -0.18631098
0.0006546558 -0.16869196 -0.05005082 -0.011310064 0.002706477 0.050225124 -0.25180215 -0.057734724
-0.15374587 0.020843653 0.3252647 -0.08252133 -0.28367427 0.21354145 0.08072475 0.04910416
0.02027122 -0.042685587 0.03805895 0.01566402 -0.11540506 0.0086958185 0.035971574 0.02832193
-0.2338311 0.022437604 -0.047007296 -0.01022381 0.07022206 -0.009084282 -0.005050832 -0.0037742006
0.008199649 -0.54524475 0.02787897 -0.069672026 0.010440006 -0.6880246 -0.1193804 0.03379355
-0.053437468 0.03668062 -0.09352665 0.06709889 -0.0153668355 0.019191476 -0.0881847 0.08815848
-0.020781944 0.040243536 0.0641763 -0.039300546 -0.12952647 -0.050415307 -0.03519806 0.06926007
0.15741828 -0.07399983 0.03822036 0.005841724 -0.13917542 -0.008645328 -0.058243837 0.0035684588
0.014017828 0.08555601 -0.06679874 -0.089139014 0.033675443 0.07077535 -0.07884063 -0.052909724
0.16404532 -0.025775332 -0.05540646 0.0035428207 -0.12896489 -0.0454301 -0.026312368 -0.05951503
0.11096968 0.08589144 0.016012333 -0.046159856 -0.085182235 -0.07398308 0.094631016 -0.108322695
0.020657754 0.0034787029 0.02715489 0.081607945 -0.010259792 0.046157382 -0.14688413 -0.07467176
0.10905494 0.013081895 -0.08223681 -0.080361575 -0.09680088 0.13159558 0.08263121 -0.07099994
0.081066824 0.122632585 -0.12390149 0.05414931 0.11621548 -0.023607537 -0.07315555 0.08084755
0.055005427 -0.039844804 -0.020311808 -0.012320539 -0.06027504 0.06854663 -0.004152316 0.043331694
0.012832373 0.023924172 -0.07491621 -0.067009985 -0.025881149 -0.00434542 0.0170593 -0.1356056
-0.12104211 -0.077541776 0.012475468 0.021030819 0.02874115 0.004557374 -0.04892282 0.034971736
0.04745579 -0.0716239 0.019814737 0.008192764 -0.1679192 0.111228235 -0.06695479 -0.020359218
0.08692509 -0.024163296 0.05586226 -0.017046282 0.055325106 -0.007097684 -0.044029906 0.03040548
-0.071792506 0.006473578 -0.04059578 -0.026620833 0.036950044 0.007022001 -0.10852543 -0.07560953
0.08517627 -0.01955409 0.016788878 -0.028967552 -0.22013277 0.014985554 0.025657406 -0.07332547

lstm.bias_ih_l0 f4 [512]
00000000: 9723 913d b76c a03d 878b 063d a877 313c
00000010: e2da 93bc 350b d53d 1336 fdbd e3a0 d8bc
00000020: 94d7 76bd a638 5abd 983c a13c 6ac6 183d
00000030: 61ed a3bb e7c7 87bc 3428 433d c836 fcbc
00000040: 4d10 3d3e eeb4 523d 9a1e adbd b87b 143e
00000050: 6dca d6bc 90a0 d6bc f7da 9cbc 12eb 9cbd
00000060: 3025 8bbb 016b 02be 469b 05bd 79c0 be3d
00000070: a4a3 7f3d 43f2 e63c 4849 bcbc ec57 7e3c
00000080: b6fc 46bd 735f c73d 20d6 823d a480 56bc
00000090: 3491 3abd 98b8 473d cabe 0c3d 0eba 7b3d
000000a0: 27ee ffbc 89cc 2d3c 5fa5 2f3d 635b 6fbd
000000b0: 3fc2 833d ac8a 7b3e 09ab 013c afa9 893d
000000c0: 0b06 823d 87f0 8cbd d960 44bf f279 133d
000000d0: 0ec6 6cbd 6e10 12be f328 ddbb fd21 7f3d
000000e0: a39e a5bd 8d7d a03d 68c5 2cbd 389f 8d3d
000000f0: 41c1 db3d 566d b4bd 8a66 2b3d b947 13bc
00000100: 8c15 44bd a006 4dbb f051 883b 1a71 7c3d
00000110: 2bcf d43c 1302 833d 2322 713d ca2a 933d
00000120: 6508 54bd cf11 183c 0f3b 8cbd f2bb 043e
00000130: ccce febd ce3e 89bd 9d84 ba3d 967d 11bc
00000140: c2b3 343d b8ea fc3c 26b2 3d3d 7010 03bc
00000150: 67a3 a73d 1055 b7bc bfdb c23d ae6c 993c
00000160: 19bb ab3d ac6b 72bd 7b37 e43d 8afe 4abd
00000170: 7ea0 86bd 15b9 07bc 6280 45bd dbab 093c
00000180: d03c b83d 8bf6 d7bc 16d6 2a3d a60e 01bd
00000190: fae2 0c3d a2e3 563e a229 63bd 1805 9bbd
000001a0: e7df 68bd 800a 8a3c 64e9 f4bd d3c0 cf3d
000001b0: 2ff9 a2bc 7209 5e3d d039 043d 0f5c 5abc
000001c0: 05d6 023e 62b8 94be 6e40 e4bc e966 27bb
000001d0: 3f5b 99bd f4a0 c7bc f6a2 ac3c 8984 d6bc
000001e0: 00a4 403d 1b66 6d3d d07c a63d 743d 8d3c
000001f0: 5799 a23d 463c 053d 9bea 97be 827a efbb
00000200: 7dce 943c b49d b13d ae79 9e3d 0571 70bd
00000210: 607f 113e 68c3 843d 56fe a53d a29f d93d
00000220: 0648 6e3d 30c0 5dbd b06d 9ebd f5e5 bb3b
00000230: dcac 2d3d 1c46 953c f048 19bd ad17 b4bc
00000240: d8e1 5e3b b446 febd 7d11 59bd c345 4cbc
00000250: d927 a5bc 4859 b5bd 7d2f c7bc 70e6 91bb
00000260: 3c7d 37bd 1e73 bc3c 4da7 e7be a1f3 4ebd
00000270: f421 86bc e616 d5bc 5013 8bbd 8de1 9cbc
00000280: 5264 61bd e6c4 903d afd3 bcbb bc5e 723d
00000290: da4a ad3c eae3 45bd b075 52bc 02c6 9b3d
000002a0: 8f15 913c 8812 62b9 af0d 943d a67b e6bc
000002b0: 1db0 cabc 6288 9b3d eff4 60bd 5c60 10bc
000002c0: d290 693d 2456 b43d 9caf 413c c740 d03d
000002d0: 15d0 d03c cf48 853d e406 de3c 3501 243d
000002e0: 5b38 823d d9cc aabc a913 013d c900 0b3d
000002f0: c0a7 ce3c fdd8 e4bc d504 993d 035e 1e3e
00000300: c609 8bbd a801 823d a086 51bd 557d 21b9
00000310: 7305 7abd 526f ecbc 0441 c43d 4b3c a93d
00000320: f19c 76bb c35c 913d adad 79bd c522 f73b
00000330: 727c 6bbd 10d9 eb3c 4ebf ed3c dd6c de3d
00000340: 9038 063d ed19 3cbd cdff bcbd d901 89bd
00000350: ae9d 7f3d 7211 04bd 935a 663d fab0 7f3d
00000360: 02c4 5e3d 8083 f03d 4c9c 5cbc 7e29 60bc
00000370: 3e1a 3e3c 0125 47be 6122 4a3d 9744 b03c
00000380: 1d5b 513d b103 8e3d 5a6e 103e dd63 35be
00000390: 1b27 163e a4e3 0bbd bca6 e93c 89ec a5bd
000003a0: ba59 3bbd 4a53 42bd 69dd cbbc 037f a73d
000003b0: d291 003d e1f6 823d 54de da3c f772 49bd
000003c0: 94e5 963c e85a 353e df27 a43d 781a c3bd
000003d0: ebd8 15bd abd8 a53d 9502 a43d ad07 37bd
000003e0: 1545 75bd f0df 323d 93d7 3cbc ee4e 553d
000003f0: 6ea7 d33d 60ea e83c f4ad cc3b 5bd8 8e3d
0.07086866 0.07833236 0.032847907 0.010831751 -0.018048707 0.10402528 -0.123638295 -0.026443904
-0.060264185 -0.05327668 0.019682214 0.037298597 -0.005002663 -0.016574813 0.047645763 -0.03078784
0.1846325 0.05144208 -0.084531024 0.1450032 -0.026219571 -0.026199609 -0.01914738 -0.076620236
-0.0042463765 -0.12736131 -0.032618783 0.09314055 0.06241192 0.028191691 -0.022984162 0.015523892
-0.048580848 0.09735002 0.06388497 -0.013092194 -0.045548633 0.048760027 0.034361638 0.061456732
-0.03124149 0.010607847 0.04288232 -0.058436763 0.06433534 0.24564618 0.007914313 0.06721818
0.06348809 -0.068818145 -0.7671028 0.036004968 -0.057806067 -0.1426408 -0.0067492663 0.062288273
-0.08086898 0.07836447 -0.04218045 0.06915134 0.1073022 -0.08809917 0.041845836 -0.008989268
-0.04787211 -0.0031284466 0.0041601583 0.0616313 0.025977692 0.0639688 0.058870446 0.07185896
-0.05176582 0.00928159 -0.06847202 0.1296232 -0.12441787 -0.06701432 0.09107325 -0.00888004
0.044116743 0.030873641 0.046312474 -0.0079995245 0.081854634 -0.022379428 0.095145695 0.01872858
0.083852954 -0.059184715 0.111433946 -0.049559154 -0.0657358 -0.008283873 -0.04821814 0.00840279
0.08995974 -0.026362678 0.041708075 -0.03150811 0.03439615 0.20985273 -0.055459626 -0.07569331
-0.056854155 0.01685071 -0.11958578 0.101442 -0.01989421 0.054208227 0.032281697 -0.013327613
0.12776954 -0.29046923 -0.027862754 -0.0025543517 -0.07488107 -0.02436874 0.0210738 -0.026186245
0.047031403 0.057958703 0.08129275 0.017241217 0.079394035 0.032528184 -0.29671177 -0.0073083052
0.018164868 0.086726576 0.07738052 -0.058701534 0.14208746 0.06482583 0.08105151 0.10626151
0.058174156 -0.054138362 -0.07735765 0.0057342 0.04240118 0.018221907 -0.037423074 -0.021983946
0.0034009125 -0.12415829 -0.052995194 -0.012467804 -0.020160602 -0.0885492 -0.024314636 -0.004452519
-0.044797167 0.02300411 -0.45244828 -0.05052531 -0.016373612 -0.026011895 -0.06790793 -0.01915052
-0.055027314 0.070688054 -0.0057625393 0.059172377 0.021153856 -0.04831306 -0.012845442 0.07606126
0.017710475 -0.00021559943 0.072291724 -0.028135132 -0.02474218 0.07594372 -0.054921087 -0.008812036
0.057022877 0.088054925 0.011821654 0.10168605 0.025489846 0.06508028 0.027102895 0.040040214
0.06358405 -0.020849632 0.03151289 0.033936296 0.025226474 -0.0279355 0.07471625 0.1546555
-0.067889735 0.06347972 -0.05115378 -0.00015400846 -0.061040353 -0.028861675 0.09582713 0.08263453
-0.0037630165 0.07097771 -0.060956646 0.0075419866 -0.057491727 0.028790027 0.029021885 0.10860608
0.032768786 -0.045923162 -0.092284776 -0.066898055 0.062406234 -0.0322432 0.056238722 0.062424637
0.054386146 0.11743832 -0.013464998 -0.0136817675 0.011602936 -0.1944771 0.049349193 0.021517081
0.051112283 0.06934298 0.14104596 -0.17713876 0.14663355 -0.034152642 0.028521888 -0.08101756
-0.045739867 -0.047442712 -0.02488585 0.081785224 0.031389065 0.06394745 0.026717342 -0.049181905
0.018420018 0.17710459 0.08015417 -0.09526533 -0.036583822 0.08097967 0.08008305 -0.044685055
-0.059880335 0.043670595 -0.011526006 0.052077226 0.10334669 0.028432071 0.0062463228 0.0697486

lstm.bias_hh_l0 f4 [512]
00000000: a8f2 bd3c 97d1 ad3d cf1a c33d 7054 c03b
00000010: b281 393d b0cd febc 685f 19be 7bee 32bd
00000020: 5f24 853d 74ec a73c 51a0 d5bd a69e 89bd
00000030: d042 963d af45 a33d d19d ba3d 1a27 3bbd
00000040: e978 133e a74a ec3b ab12 a33d c523 e63c
00000050: b701 05be 0098 833c 8068 e23d fc13 473d
00000060: c2c3 823d a448 2dbe eeb4 633d 7e2b b73d
00000070: c660 7abd f201 40bd 6067 99bb 3356 38bd
00000080: d0d8 bd3c cb29 d63d f386 423d 1b3d 68bd
00000090: 3b4b 943d 78d2 2e3d 9d30 543c fff7 2dbd
000000a0: 8835 133a 5a88 71bb 5ced 92bb df1a 4abd
000000b0: 873f 9f3d 59e3 e03d d158 c1bc b5ac 46bd
000000c0: ed10 823d c121 e33a 0ea6 61bf 985a dc3c
000000d0: 5d70 07bd 0032 64be 192d 55bd 0a20 dd3d
000000e0: 9cde a43c 38d0 cd3c 56f8 c63d 88f0 4b3d
000000f0: fad6 0a3e b546 d8bd 7e07 753d 7fd0 adbd
00000100: 629c 57bd 35eb 23bd 1ea2 69bd 3827 bf3c
00000110: 2e2d 44bc b611 4c3d 9e07 12bd e946 37bc
00000120: a898 5b3d 3d91 b53c ade8 37bd 8c20 423e
00000130: c348 9ebc 19b5 61bd 99ec a2bc b7fb 693d
00000140: 105c 35bc 2d93 29bd 3efc 99bd b103 8c3d
00000150: 2b4a 843d b32e 36bc 4095 a73d 0c8e 783d
00000160: 2030 09bd d96c 04be c243 1c3d 1197 d33b
00000170: 7fc3 863d ab2c 413c 574b a1bd 9b9d 9e3d
00000180: 705b ac3d 39ce bebd 1147 1a3e f573 cfbc
00000190: cb1b b53d 96e9 d33d c677 2c3d 1029 c2bc
000001a0: aadf a8bd fbe2 043c 6524 ea3c 298f 883d
000001b0: 7452 19bd 40c4 d03b 45f7 06bd ce3d 933d
000001c0: d872 623c ff9f 5dbe e116 3cbd 5934 263e
000001d0: aced 973d e0ee c1bc afa4 84bd 715f b7bd
000001e0: 6b05 70bd ee92 073c b211 013e 9dae d93d
000001f0: 29d9 35bd fe51 583d 4531 acbe 45cc 54bd
00000200: a85e 62ba f4ff 303d 1e64 8b3b 0eef 743d
00000210: d910 8a3b 754f 81bd fd3b 0d3e 6abf 1f3d
00000220: dd62 50bd 4661 263d 7b47 16be 034a ae3d
00000230: b50b 8c3d 1eb9 383d 1c18 a7bc 0e96 6a3d
00000240: b231 7d3d 1dbf 493d 82a5 3b3d a257 aebd
00000250: c072 c7bc eaca f2bd f120 09bd e7b9 b0bd
00000260: f409 003d 6819 5bbc a425 d2be ccad b1bd
00000270: d837 173c e0aa 173b 807d 03bc 8b10 9d3c
00000280: 6644 44bd 2c04 89bc 49a4 b13d 793d 75bc
00000290: 2e6c 173e 9ab3 713d 58cd 563c e2da b0bc
000002a0: adac 73bd 8b0e ccbb e58e b2bd a376 c23d
000002b0: a9a5 90bd d8d7 fdbc 3ea5 983d 1b83 943d
000002c0: 156b 47bd c644 7fbd 92eb 203c 9404 e33d
000002d0: 1757 0d3e 6853 1cbd 94ab ae3d b9f3 023d
000002e0: c558 8cbc 93a6 92bd 51d5 263d f158 eb3b
000002f0: a68a 9f3d 81c7 a33c 5ee9 07bd 3899 f43d
00000300: 7db2 993d 44e9 94bb 43b0 adbc be9f 18bd
00000310: 2ad2 9ebd eeb8 0bbd 9469 be3d 596d bcbc
00000320: d187 c2bc 34b2 8c3c 4fe5 203d f1ae 393d
00000330: f961 f1bd 786f ee3c a4df 283d 98bd 433d
00000340: d279 e8bc 4005 f13b adf3 363d 3d55 3ebd
00000350: 9149 9e3d 2c25 9ebd e3f2 753d 6037 06bd
00000360: a4d2 50bd 0c39 183e 27b6 0a3e 80f4 e2bc
00000370: ca6b 75bc 4cf2 a3be 7b9d 503a dbb6 efbd
00000380: c154 843a caab 343b fdc6 513d 8b09 d0bd
00000390: 162b 223e d3ae bb3c 0081 fa3c 839c ddbd
000003a0: 743f 873d 1d89 0ebd 2bd9 1c3d 9233 bcbc
000003b0: 22a4 a73d 1e31 793d bb41 a83d 59b9 b0bd
000003c0: 838d 45bd c173 1e3e 44c5 123d fa10 1abc
000003d0: fa72 483d 51db 67bd 6137 b3bc 5aa6 f8bd
000003e0: e21f 8a3d 4d60 9abd 09fd 853d 1e12 263e
000003f0: 393c ffbc 7524 943d ac51 193d 645c e83c
0.023186997 0.08487242 0.09526598 0.0058694407 0.045289703 -0.031103939 -0.14977801 -0.043684464
0.06501078 0.020498492 -0.104309686 -0.06719713 0.07336962 0.079722755 0.09112132 -0.045691587
0.14401592 0.0072110477 0.07962545 0.028093228 -0.12988935 0.01606369 0.11055088 0.048603043
0.06384994 -0.16922241 0.05559247 0.08943842 -0.061127447 -0.046876855 -0.0046815127 -0.04500408
0.023174673 0.1045719 0.04749198 -0.0566989 0.072409116 0.042681187 0.012951043 -0.042472836
0.0005615582 -0.0036854954 -0.004483862 -0.049342033 0.07775789 0.10980863 -0.023601921 -0.04850455
0.063508846 0.0017328785 -0.88144004 0.026898667 -0.033066142 -0.22284698 -0.05204496 0.107971266
0.02012568 0.0251237 0.09715335 0.049789935 0.1355857 -0.10560361 0.0598216 -0.08487033
-0.052639373 -0.040019233 -0.057039373 0.02333413 -0.011973662 0.049821578 -0.035651796 -0.01118634
0.05361238 0.022163982 -0.04489963 0.18957728 -0.019321805 -0.05510435 -0.01988821 0.05712482
-0.011069313 -0.041400123 -0.075188145 0.068366416 0.06459459 -0.011119532 0.08182764 0.06068234
-0.03349316 -0.12932147 0.038150556 0.0064572175 0.06580257 0.011790435 -0.07875698 0.077449046
0.08415878 -0.093166776 0.15066172 -0.025323847 0.08843192 0.10347287 0.042106412 -0.02370122
-0.082457855 0.008110757 0.028581807 0.06667931 -0.03743215 0.006371051 -0.03295066 0.07189523
0.013821326 -0.21643065 -0.045920257 0.16230907 0.07418379 -0.023673475 -0.064767234 -0.08953751
-0.058598917 0.008274777 0.12604406 0.10629008 -0.044396553 0.05281257 -0.3363134 -0.05195262
-0.00086353207 0.043212846 0.0042538783 0.059798293 0.004213434 -0.06313983 0.13792415 0.039000906
-0.050875533 0.04062011 -0.14675705 0.0851021 0.068381704 0.045098417 -0.020397238 0.05727201
0.06181497 0.049254525 0.045812137 -0.085128084 -0.02434671 -0.11855109 -0.03347868 -0.08629208
0.031259492 -0.013372757 -0.41044343 -0.08675727 0.009229623 0.002314262 -0.008025527 0.019172927
-0.047916792 -0.016725622 0.08673913 -0.0149682695 0.14787361 0.059009172 0.013110481 -0.021588746
-0.05949085 -0.0062273196 -0.08718661 0.094952844 -0.07062847 -0.030986711 0.074533924 0.07251569
-0.048686106 -0.062321447 0.009821789 0.110848576 0.13802753 -0.03816548 0.0852882 0.031970713
-0.017132172 -0.07160678 0.040730778 0.0071822335 0.07790117 0.019992592 -0.03318154 0.11943287
0.07504747 -0.004544409 -0.021202212 -0.037261717 -0.07754929 -0.03411191 0.09297481 -0.02300136
-0.023746403 0.017174818 0.039281186 0.045332853 -0.11786265 0.029105887 0.041228905 0.047788233
-0.028378401 0.007355362 0.04466598 -0.04646801 0.077288754 -0.07721934 0.060046088 -0.032767653
-0.050982133 0.14865512 0.13546048 -0.027704477 -0.014979312 -0.32020795 0.0007958037 -0.11704799
0.0010096059 0.0027568215 0.05121516 -0.1015807 0.15836748 0.022910511 0.03057909 -0.10820868
0.066038996 -0.03479873 0.038293045 -0.02297381 0.08185603 0.060837857 0.08215662 -0.08629102
-0.04823066 0.15473844 0.03583266 -0.009403462 0.048937775 -0.05660564 -0.021876993 -0.12141104
0.067443624 -0.07537899 0.06542403 0.16217849 -0.031156646 0.07233516 0.037431404 0.028364368

fc.weight f4 [2, 128]
00000000: dc03 463f 3ad5 8fbf bc37 763f b0ed 79be
00000010: 48bc 3c3c f4eb c33e 9ff5 903e f779 403f
00000020: 70b4 3b3d d66f 15bd bfc1 4d3e 8d13 aebd
00000030: bd58 7bbf 50e0 6dbd d52d ff3e 8dad 6a3b
00000040: 88b1 073d 8664 62be 94a3 97bd fc3b c7be
00000050: 13e9 a33e 1801 87bf de1e e93f 5650 773d
00000060: 1687 89bc a370 8dbd 2283 88bc f6e9 87be
00000070: 2d64 91be bbbe f03c 74d3 413d 3288 333d
00000080: 792d da3e 39c1 9b3f 2ad7 fe3e 9580 1abf
00000090: d318 b4be c0dd a4bd 2806 a2be 5842 f63c
000000a0: a9a5 683f 6b17 f4be 9694 183d da3a 063f
000000b0: 7ef4 733d 3221 d6bf 4564 1ebf c7e7 c93e
000000c0: 25e9 c13e 8bee 013e c2e1 8ac0 8edd d33e
000000d0: dc74 acbd dd10 463e ff5e 8ebe 9a6c 8dbc
000000e0: 91d0 1e3f 8863 523e 8311 72bd 19b3 8dbf
000000f0: b5a7 213f 06a0 e63e aec4 69bd 6039 0a3e
00000100: 71c4 033d 2c83 2ebd 9084 dcbd 2979 6fbe
00000110: 5e60 363f 72ce 3d3d 3c8c 093e 4415 833f
00000120: a2bb 28be 4ad6 853d c425 fabd f8dc ae3e
00000130: 6730 ee3e 523b 633c be5f 84be 7495 62be
00000140: 670b 003c 724b 97bd 4627 c43e 20d7 9fbc
00000150: 71b3 853c 6065 033d 3cb2 a4bf 61af e8bd
00000160: 38fc 56bd 937e 163f 92e1 1b3e 31c4 10bd
00000170: 2926 d93e 4d0d 8a3e 1f23 69bf 474f 2bbf
00000180: 714f 983e 91b7 403e 05d5 ebbf 90ed ee3e
00000190: f36e b73f 957b b2ba 0548 8a3d 99b6 1ebd
000001a0: 6a79 da3d af39 36be 8849 303f b224 7d3f
000001b0: 9a4a 9e3e 1e77 c4bb b20e 08bc 6d1a 2ebc
000001c0: bc90 bd3f 80f8 50bf 1830 c03c 1d80 173f
000001d0: 1e2d 7b3d 8527 a4bc 0084 893f 62e8 4dbe
000001e0: b37a 103e e46f b2be a5b2 d43e 9ede 05bb
000001f0: 5062 cebe 2ae8 d9be 8ee5 863e 750f 5dbd
00000200: 3b57 47bf 24d4 913f 26b8 7fbf 76a4 283e
00000210: d25b b73c 8f2a c7be 4958 8cbe b315 3bbf
00000220: cef9 7dbc 1019 8d3b 7b3e a1be 03f0 e4bc
00000230: 8b51 7f3f 28ac d13c 015c 1bbf 08bd 793d
00000240: 5947 2ebe a7cc 813e 9502 353c c177 c73e
00000250: e1cf d2be cd05 8d3f 2b71 f0bf 8230 49bb
00000260: 475b 36bd f5eb 373e 6e47 113d 44a4 be3e
00000270: ebe8 6c3e c71a 9b3d 9732 033c 455c 4abd
00000280: 99ee f0be 0075 9bbf b69d d8be 96ee 1f3f
00000290: ed7a f73e ca09 9abd 77c5 2e3e 2183 873b
000002a0: 5f96 4dbf 8b62 f03e 8d7e 5e3d e159 0bbf
000002b0: fce5 a13c f995 d13f 7edb 0d3f 8914 9dbe
000002c0: 582a c4be e8fc 53be 0ed5 8940 9286 eabe
000002d0: d78a 0f3e 01d6 61be ce26 b13e 3791 c53d
000002e0: c634 09bf 7fb1 3cbe 8f6e ac3d 1069 843f
000002f0: 538d 40bf 1aae f0be 15ae f4bc 8f36 babd
00000300: 67cb 373d 4853 8ebd 6197 c73d f3af 143e
00000310: 6634 37bf 1293 253d f93e 2dbe a827 90bf
00000320: 8457 453e fb3a 813b c0cc b83d 121e d9be
00000330: 8169 13bf a0d4 a73c 4af6 cb3e 5462 e83d
00000340: 3eee e3bc 4449 e5bc 58eb babe 0fc5 c13c
00000350: 721e 91bd f9f7 fabc a2ac af3f 10c3 023d
00000360: 10d4 b03c 7df5 1cbf 70ca 67be d617 0e3e
00000370: 7474 c4be 4ac5 3ebe d4b9 7c3f 0faa 393f
00000380: 032b 62be 8a13 50be 7b03 e83f 2046 f8be
00000390: 8a83 b5bf c32f 993d 4d11 89bc e551 86bd
000003a0: 06ba 86be d689 7b3e 2e79 2abf fcc0 5cbf
000003b0: 60c6 bdbe 8d6f 0abd 10fc 42bd 7fa8 d63c
000003c0: 287b c6bf b3c7 703f f835 96bd 48c8 29bf
000003d0: 09f5 3cbd 4636 863c 01ed 86bf b6c2 3b3e
000003e0: ed65 0bbe f81d cc3e a555 e8be f7f0 093e
000003f0: 1fcb b73e 6785 c73e c1aa 6bbe 4015 5b3d
0.7734964 -1.1236947 0.96178794 -0.24407077 0.011519499 0.38265955 0.28312394 0.75186104
0.045826375 -0.03648361 0.2009344 -0.08499823 -0.9818228 -0.05807525 0.49839655 0.003580901
0.03312829 -0.22108659 -0.07404247 -0.38912952 0.3201376 -1.0547209 1.8212545 0.06037935
-0.016788047 -0.069062494 -0.016664091 -0.26545686 -0.2839674 0.029387822 0.047320798 0.043831058
0.42612818 1.2168342 0.49773532 -0.6035245 -0.3517519 -0.08050108 -0.31645322 0.030060932
0.9087778 -0.47674116 0.037251078 0.5243355 0.059559338 -1.672888 -0.6187175 0.39434645
0.37873188 0.12688653 -4.3400583 0.4137997 -0.08420727 0.1934237 -0.2780685 -0.0172637
0.62037 0.2054578 -0.05909873 -1.1070281 0.63146526 0.45043963 -0.057072334 0.1349845
0.032169763 -0.042605564 -0.10767472 -0.23386063 0.71240795 0.04633946 0.13432401 1.0240865
-0.16477826 0.06535013 -0.122142345 0.3415296 0.46521303 0.0138691235 -0.25854295 -0.22127324
0.0078152185 -0.07387437 0.38311213 -0.01951176 0.016320916 0.0320791 -1.2866893 -0.11361576
-0.05248663 0.58786887 0.15222767 -0.035343353 0.42411926 0.26963273 -0.91069216 -0.6691784
0.2974811 0.18820025 -1.8424383 0.4666562 1.4330734 -0.0013617153 0.06752018 -0.038748357
0.10667689 -0.17795442 0.688622 0.9888412 0.3091629 -0.005995645 -0.008304285 -0.010626418
1.4809794 -0.8162918 0.023460433 0.5917986 0.061322324 -0.020038376 1.0743408 -0.20108178
0.14109306 -0.3485099 0.41542545 -0.002042688 -0.4030938 -0.4255994 0.2634701 -0.05396982
-0.7786748 1.1392865 -0.99890363 0.16468987 0.02238265 -0.38899657 -0.27411106 -0.73079985
-0.015501453 0.004305966 -0.3149298 -0.027946478 0.997338 0.025594786 -0.6068726 0.06097129
-0.17019404 0.2535145 0.011047979 0.38958552 -0.41174224 1.1017395 -1.8784536 -0.003069908
-0.044520643 0.17961104 0.03546851 0.372347 0.23135726 0.07573467 0.008007667 -0.0494044
-0.47057036 -1.214508 -0.42307824 0.6247343 0.48335972 -0.07521398 0.17067514 0.004135505
-0.80307573 0.46950182 0.054319907 -0.5443402 0.019762985 1.6373893 0.55413043 -0.3067973
-0.38313556 -0.20701945 4.3072577 -0.45805794 0.14017807 -0.22054292 0.34599918 0.09646838
-0.5359615 -0.18427084 0.08419525 1.0344563 -0.75215644 -0.4700783 -0.029868165 -0.090924375
0.044871714 -0.069494784 0.0974567 0.14520244 -0.7156433 0.04042346 -0.16918553 -1.1262102
0.19271666 0.0039437986 0.09023428 -0.42405754 -0.5758286 0.02048713 0.3983634 0.113468796
-0.027823564 -0.027989037 -0.36507678 0.023653535 -0.07085885 -0.03063582 1.3724558 0.031924307
0.021585494 -0.61312085 -0.22635818 0.1387628 -0.38370097 -0.18629947 0.9872105 0.72525114
-0.2208672 -0.20319954 1.8126062 -0.48491 -1.4180768 0.07479813 -0.016731882 -0.06558589
-0.263138 0.24564299 -0.66591156 -0.8623197 -0.3706541 -0.03379779 -0.047603667 0.026203392
-1.5506334 0.94054717 -0.073345125 -0.6632123 -0.04613212 0.016383301 -1.0541078 0.18335995
-0.136131 0.39866614 -0.45377842 0.13470827 0.35897157 0.38968965 -0.23014356 0.053487062

fc.bias f4 [2]
00000000: 8025 d63e 9390 90be
0.41825485 -0.282353
